node {
  name: "global_step/Initializer/zeros"
  op: "Const"
  attr {
    key: "_class"
    value {
      list {
        s: "loc:@global_step"
      }
    }
  }
  attr {
    key: "_output_shapes"
    value {
      list {
        shape {
        }
      }
    }
  }
  attr {
    key: "dtype"
    value {
      type: DT_INT64
    }
  }
  attr {
    key: "value"
    value {
      tensor {
        dtype: DT_INT64
        tensor_shape {
        }
        int64_val: 0
      }
    }
  }
}
node {
  name: "global_step"
  op: "VarHandleOp"
  attr {
    key: "_class"
    value {
      list {
        s: "loc:@global_step"
      }
    }
  }
  attr {
    key: "_output_shapes"
    value {
      list {
        shape {
        }
      }
    }
  }
  attr {
    key: "allowed_devices"
    value {
      list {
      }
    }
  }
  attr {
    key: "container"
    value {
      s: ""
    }
  }
  attr {
    key: "dtype"
    value {
      type: DT_INT64
    }
  }
  attr {
    key: "shape"
    value {
      shape {
      }
    }
  }
  attr {
    key: "shared_name"
    value {
      s: "global_step"
    }
  }
}
node {
  name: "global_step/IsInitialized/VarIsInitializedOp"
  op: "VarIsInitializedOp"
  input: "global_step"
  attr {
    key: "_output_shapes"
    value {
      list {
        shape {
        }
      }
    }
  }
}
node {
  name: "global_step/Assign"
  op: "AssignVariableOp"
  input: "global_step"
  input: "global_step/Initializer/zeros"
  attr {
    key: "dtype"
    value {
      type: DT_INT64
    }
  }
  attr {
    key: "validate_shape"
    value {
      b: false
    }
  }
}
node {
  name: "global_step/Read/ReadVariableOp"
  op: "ReadVariableOp"
  input: "global_step"
  attr {
    key: "_output_shapes"
    value {
      list {
        shape {
        }
      }
    }
  }
  attr {
    key: "dtype"
    value {
      type: DT_INT64
    }
  }
}
node {
  name: "global_step/VarIsInitializedOp"
  op: "VarIsInitializedOp"
  input: "global_step"
  attr {
    key: "_output_shapes"
    value {
      list {
        shape {
        }
      }
    }
  }
}
node {
  name: "global_step/cond"
  op: "If"
  input: "global_step/VarIsInitializedOp"
  input: "global_step"
  input: "global_step/Initializer/zeros"
  attr {
    key: "Tcond"
    value {
      type: DT_BOOL
    }
  }
  attr {
    key: "Tin"
    value {
      list {
        type: DT_RESOURCE
        type: DT_INT64
      }
    }
  }
  attr {
    key: "Tout"
    value {
      list {
        type: DT_INT64
      }
    }
  }
  attr {
    key: "_lower_using_switch_merge"
    value {
      b: true
    }
  }
  attr {
    key: "_output_shapes"
    value {
      list {
        shape {
        }
      }
    }
  }
  attr {
    key: "_read_only_resource_inputs"
    value {
      list {
        i: 1
      }
    }
  }
  attr {
    key: "else_branch"
    value {
      func {
        name: "global_step_cond_false_7"
      }
    }
  }
  attr {
    key: "output_shapes"
    value {
      list {
        shape {
        }
      }
    }
  }
  attr {
    key: "then_branch"
    value {
      func {
        name: "global_step_cond_true_6"
      }
    }
  }
}
node {
  name: "global_step/cond/Identity"
  op: "Identity"
  input: "global_step/cond"
  attr {
    key: "T"
    value {
      type: DT_INT64
    }
  }
  attr {
    key: "_output_shapes"
    value {
      list {
        shape {
        }
      }
    }
  }
}
node {
  name: "global_step/add/y"
  op: "Const"
  attr {
    key: "_output_shapes"
    value {
      list {
        shape {
        }
      }
    }
  }
  attr {
    key: "dtype"
    value {
      type: DT_INT64
    }
  }
  attr {
    key: "value"
    value {
      tensor {
        dtype: DT_INT64
        tensor_shape {
        }
        int64_val: 0
      }
    }
  }
}
node {
  name: "global_step/add"
  op: "AddV2"
  input: "global_step/cond/Identity"
  input: "global_step/add/y"
  attr {
    key: "T"
    value {
      type: DT_INT64
    }
  }
  attr {
    key: "_output_shapes"
    value {
      list {
        shape {
        }
      }
    }
  }
}
node {
  name: "args_0"
  op: "Const"
  device: "/device:CPU:0"
  attr {
    key: "_output_shapes"
    value {
      list {
        shape {
          dim {
            size: 2
          }
        }
      }
    }
  }
  attr {
    key: "dtype"
    value {
      type: DT_STRING
    }
  }
  attr {
    key: "value"
    value {
      tensor {
        dtype: DT_STRING
        tensor_shape {
          dim {
            size: 2
          }
        }
        string_val: "/home/dark/Documents/GitHub/lstm_tracker//data/kitti_tracks_{}.json"
        string_val: "/home/dark/Documents/GitHub/lstm_tracker//data/mot_tracks_{}.json"
      }
    }
  }
}
node {
  name: "args_1"
  op: "Const"
  device: "/device:CPU:0"
  attr {
    key: "_output_shapes"
    value {
      list {
        shape {
        }
      }
    }
  }
  attr {
    key: "dtype"
    value {
      type: DT_STRING
    }
  }
  attr {
    key: "value"
    value {
      tensor {
        dtype: DT_STRING
        tensor_shape {
        }
        string_val: "train"
      }
    }
  }
}
node {
  name: "normalize_element/component_0"
  op: "Const"
  device: "/device:CPU:0"
  attr {
    key: "_output_shapes"
    value {
      list {
        shape {
        }
      }
    }
  }
  attr {
    key: "dtype"
    value {
      type: DT_INT32
    }
  }
  attr {
    key: "value"
    value {
      tensor {
        dtype: DT_INT32
        tensor_shape {
        }
        int_val: 0
      }
    }
  }
}
node {
  name: "TensorDataset"
  op: "TensorDataset"
  input: "normalize_element/component_0"
  device: "/device:CPU:0"
  attr {
    key: "Toutput_types"
    value {
      list {
        type: DT_INT32
      }
    }
  }
  attr {
    key: "_output_shapes"
    value {
      list {
        shape {
        }
      }
    }
  }
  attr {
    key: "metadata"
    value {
      s: ""
    }
  }
  attr {
    key: "output_shapes"
    value {
      list {
        shape {
        }
      }
    }
  }
  experimental_type {
    type_id: TFT_PRODUCT
    args {
      type_id: TFT_DATASET
      args {
        type_id: TFT_PRODUCT
        args {
          type_id: TFT_TENSOR
          args {
            type_id: TFT_INT32
          }
        }
      }
    }
  }
}
node {
  name: "FlatMapDataset"
  op: "FlatMapDataset"
  input: "TensorDataset"
  input: "args_0"
  input: "args_1"
  device: "/device:CPU:0"
  attr {
    key: "Targuments"
    value {
      list {
        type: DT_STRING
        type: DT_STRING
      }
    }
  }
  attr {
    key: "_output_shapes"
    value {
      list {
        shape {
        }
      }
    }
  }
  attr {
    key: "f"
    value {
      func {
        name: "__inference_Dataset_flat_map_flat_map_fn_49"
        attr {
          key: "_tf_data_function"
          value {
            b: true
          }
        }
      }
    }
  }
  attr {
    key: "metadata"
    value {
      s: ""
    }
  }
  attr {
    key: "output_shapes"
    value {
      list {
        shape {
          dim {
            size: 10
          }
          dim {
            size: 13
          }
        }
        shape {
          dim {
            size: 4
          }
          dim {
            size: 10
          }
        }
      }
    }
  }
  attr {
    key: "output_types"
    value {
      list {
        type: DT_FLOAT
        type: DT_FLOAT
      }
    }
  }
  experimental_type {
    type_id: TFT_PRODUCT
    args {
      type_id: TFT_DATASET
      args {
        type_id: TFT_PRODUCT
        args {
          type_id: TFT_TENSOR
          args {
            type_id: TFT_FLOAT
          }
        }
        args {
          type_id: TFT_TENSOR
          args {
            type_id: TFT_FLOAT
          }
        }
      }
    }
  }
}
node {
  name: "count"
  op: "Const"
  device: "/device:CPU:0"
  attr {
    key: "_output_shapes"
    value {
      list {
        shape {
        }
      }
    }
  }
  attr {
    key: "dtype"
    value {
      type: DT_INT64
    }
  }
  attr {
    key: "value"
    value {
      tensor {
        dtype: DT_INT64
        tensor_shape {
        }
        int64_val: 10000
      }
    }
  }
}
node {
  name: "RepeatDataset"
  op: "RepeatDataset"
  input: "FlatMapDataset"
  input: "count"
  device: "/device:CPU:0"
  attr {
    key: "_output_shapes"
    value {
      list {
        shape {
        }
      }
    }
  }
  attr {
    key: "metadata"
    value {
      s: ""
    }
  }
  attr {
    key: "output_shapes"
    value {
      list {
        shape {
          dim {
            size: 10
          }
          dim {
            size: 13
          }
        }
        shape {
          dim {
            size: 4
          }
          dim {
            size: 10
          }
        }
      }
    }
  }
  attr {
    key: "output_types"
    value {
      list {
        type: DT_FLOAT
        type: DT_FLOAT
      }
    }
  }
  experimental_type {
    type_id: TFT_PRODUCT
    args {
      type_id: TFT_DATASET
      args {
        type_id: TFT_PRODUCT
        args {
          type_id: TFT_TENSOR
          args {
            type_id: TFT_FLOAT
          }
        }
        args {
          type_id: TFT_TENSOR
          args {
            type_id: TFT_FLOAT
          }
        }
      }
    }
  }
}
node {
  name: "batch_size"
  op: "Const"
  device: "/device:CPU:0"
  attr {
    key: "_output_shapes"
    value {
      list {
        shape {
        }
      }
    }
  }
  attr {
    key: "dtype"
    value {
      type: DT_INT64
    }
  }
  attr {
    key: "value"
    value {
      tensor {
        dtype: DT_INT64
        tensor_shape {
        }
        int64_val: 128
      }
    }
  }
}
node {
  name: "drop_remainder"
  op: "Const"
  device: "/device:CPU:0"
  attr {
    key: "_output_shapes"
    value {
      list {
        shape {
        }
      }
    }
  }
  attr {
    key: "dtype"
    value {
      type: DT_BOOL
    }
  }
  attr {
    key: "value"
    value {
      tensor {
        dtype: DT_BOOL
        tensor_shape {
        }
        bool_val: false
      }
    }
  }
}
node {
  name: "BatchDatasetV2"
  op: "BatchDatasetV2"
  input: "RepeatDataset"
  input: "batch_size"
  input: "drop_remainder"
  device: "/device:CPU:0"
  attr {
    key: "_output_shapes"
    value {
      list {
        shape {
        }
      }
    }
  }
  attr {
    key: "metadata"
    value {
      s: ""
    }
  }
  attr {
    key: "output_shapes"
    value {
      list {
        shape {
          dim {
            size: -1
          }
          dim {
            size: 10
          }
          dim {
            size: 13
          }
        }
        shape {
          dim {
            size: -1
          }
          dim {
            size: 4
          }
          dim {
            size: 10
          }
        }
      }
    }
  }
  attr {
    key: "output_types"
    value {
      list {
        type: DT_FLOAT
        type: DT_FLOAT
      }
    }
  }
  attr {
    key: "parallel_copy"
    value {
      b: false
    }
  }
  experimental_type {
    type_id: TFT_PRODUCT
    args {
      type_id: TFT_DATASET
      args {
        type_id: TFT_PRODUCT
        args {
          type_id: TFT_TENSOR
          args {
            type_id: TFT_FLOAT
          }
        }
        args {
          type_id: TFT_TENSOR
          args {
            type_id: TFT_FLOAT
          }
        }
      }
    }
  }
}
node {
  name: "buffer_size"
  op: "Const"
  device: "/device:CPU:0"
  attr {
    key: "_output_shapes"
    value {
      list {
        shape {
        }
      }
    }
  }
  attr {
    key: "dtype"
    value {
      type: DT_INT64
    }
  }
  attr {
    key: "value"
    value {
      tensor {
        dtype: DT_INT64
        tensor_shape {
        }
        int64_val: 128
      }
    }
  }
}
node {
  name: "PrefetchDataset"
  op: "PrefetchDataset"
  input: "BatchDatasetV2"
  input: "buffer_size"
  device: "/device:CPU:0"
  attr {
    key: "_class"
    value {
      list {
        s: "loc:@BatchDatasetV2"
      }
    }
  }
  attr {
    key: "_output_shapes"
    value {
      list {
        shape {
        }
      }
    }
  }
  attr {
    key: "buffer_size_min"
    value {
      i: 0
    }
  }
  attr {
    key: "legacy_autotune"
    value {
      b: true
    }
  }
  attr {
    key: "metadata"
    value {
      s: ""
    }
  }
  attr {
    key: "output_shapes"
    value {
      list {
        shape {
          dim {
            size: -1
          }
          dim {
            size: 10
          }
          dim {
            size: 13
          }
        }
        shape {
          dim {
            size: -1
          }
          dim {
            size: 4
          }
          dim {
            size: 10
          }
        }
      }
    }
  }
  attr {
    key: "output_types"
    value {
      list {
        type: DT_FLOAT
        type: DT_FLOAT
      }
    }
  }
  attr {
    key: "slack_period"
    value {
      i: 0
    }
  }
  experimental_type {
    type_id: TFT_PRODUCT
    args {
      type_id: TFT_DATASET
      args {
        type_id: TFT_PRODUCT
        args {
          type_id: TFT_TENSOR
          args {
            type_id: TFT_FLOAT
          }
        }
        args {
          type_id: TFT_TENSOR
          args {
            type_id: TFT_FLOAT
          }
        }
      }
    }
  }
}
node {
  name: "IteratorV2"
  op: "IteratorV2"
  device: "/device:CPU:0"
  attr {
    key: "_class"
    value {
      list {
        s: "loc:@BatchDatasetV2"
      }
    }
  }
  attr {
    key: "_output_shapes"
    value {
      list {
        shape {
        }
      }
    }
  }
  attr {
    key: "container"
    value {
      s: ""
    }
  }
  attr {
    key: "output_shapes"
    value {
      list {
        shape {
          dim {
            size: -1
          }
          dim {
            size: 10
          }
          dim {
            size: 13
          }
        }
        shape {
          dim {
            size: -1
          }
          dim {
            size: 4
          }
          dim {
            size: 10
          }
        }
      }
    }
  }
  attr {
    key: "output_types"
    value {
      list {
        type: DT_FLOAT
        type: DT_FLOAT
      }
    }
  }
  attr {
    key: "shared_name"
    value {
      s: ""
    }
  }
}
node {
  name: "MakeIterator"
  op: "MakeIterator"
  input: "PrefetchDataset"
  input: "IteratorV2"
  device: "/device:CPU:0"
  attr {
    key: "_class"
    value {
      list {
        s: "loc:@BatchDatasetV2"
      }
    }
  }
}
node {
  name: "IteratorToStringHandle"
  op: "IteratorToStringHandle"
  input: "IteratorV2"
  device: "/device:CPU:0"
  attr {
    key: "_class"
    value {
      list {
        s: "loc:@BatchDatasetV2"
      }
    }
  }
  attr {
    key: "_output_shapes"
    value {
      list {
        shape {
        }
      }
    }
  }
}
node {
  name: "IteratorGetNext"
  op: "IteratorGetNext"
  input: "IteratorV2"
  device: "/device:CPU:0"
  attr {
    key: "_class"
    value {
      list {
        s: "loc:@BatchDatasetV2"
      }
    }
  }
  attr {
    key: "_output_shapes"
    value {
      list {
        shape {
          dim {
            size: -1
          }
          dim {
            size: 10
          }
          dim {
            size: 13
          }
        }
        shape {
          dim {
            size: -1
          }
          dim {
            size: 4
          }
          dim {
            size: 10
          }
        }
      }
    }
  }
  attr {
    key: "output_shapes"
    value {
      list {
        shape {
          dim {
            size: -1
          }
          dim {
            size: 10
          }
          dim {
            size: 13
          }
        }
        shape {
          dim {
            size: -1
          }
          dim {
            size: 4
          }
          dim {
            size: 10
          }
        }
      }
    }
  }
  attr {
    key: "output_types"
    value {
      list {
        type: DT_FLOAT
        type: DT_FLOAT
      }
    }
  }
}
node {
  name: "input_tensor"
  op: "Placeholder"
  attr {
    key: "_output_shapes"
    value {
      list {
        shape {
          dim {
            size: -1
          }
          dim {
            size: 10
          }
          dim {
            size: 13
          }
        }
      }
    }
  }
  attr {
    key: "dtype"
    value {
      type: DT_FLOAT
    }
  }
  attr {
    key: "shape"
    value {
      shape {
        dim {
          size: -1
        }
        dim {
          size: 10
        }
        dim {
          size: 13
        }
      }
    }
  }
}
node {
  name: "RNN_net/stacked_rnn_cells/LSTM_Layer_0/kernel/Initializer/random_uniform/shape"
  op: "Const"
  attr {
    key: "_class"
    value {
      list {
        s: "loc:@RNN_net/stacked_rnn_cells/LSTM_Layer_0/kernel"
      }
    }
  }
  attr {
    key: "_output_shapes"
    value {
      list {
        shape {
          dim {
            size: 2
          }
        }
      }
    }
  }
  attr {
    key: "dtype"
    value {
      type: DT_INT32
    }
  }
  attr {
    key: "value"
    value {
      tensor {
        dtype: DT_INT32
        tensor_shape {
          dim {
            size: 2
          }
        }
        tensor_content: "\r\000\000\000\200\000\000\000"
      }
    }
  }
}
node {
  name: "RNN_net/stacked_rnn_cells/LSTM_Layer_0/kernel/Initializer/random_uniform/min"
  op: "Const"
  attr {
    key: "_class"
    value {
      list {
        s: "loc:@RNN_net/stacked_rnn_cells/LSTM_Layer_0/kernel"
      }
    }
  }
  attr {
    key: "_output_shapes"
    value {
      list {
        shape {
        }
      }
    }
  }
  attr {
    key: "dtype"
    value {
      type: DT_FLOAT
    }
  }
  attr {
    key: "value"
    value {
      tensor {
        dtype: DT_FLOAT
        tensor_shape {
        }
        float_val: -0.20628425478935242
      }
    }
  }
}
node {
  name: "RNN_net/stacked_rnn_cells/LSTM_Layer_0/kernel/Initializer/random_uniform/max"
  op: "Const"
  attr {
    key: "_class"
    value {
      list {
        s: "loc:@RNN_net/stacked_rnn_cells/LSTM_Layer_0/kernel"
      }
    }
  }
  attr {
    key: "_output_shapes"
    value {
      list {
        shape {
        }
      }
    }
  }
  attr {
    key: "dtype"
    value {
      type: DT_FLOAT
    }
  }
  attr {
    key: "value"
    value {
      tensor {
        dtype: DT_FLOAT
        tensor_shape {
        }
        float_val: 0.20628425478935242
      }
    }
  }
}
node {
  name: "RNN_net/stacked_rnn_cells/LSTM_Layer_0/kernel/Initializer/random_uniform/RandomUniform"
  op: "RandomUniform"
  input: "RNN_net/stacked_rnn_cells/LSTM_Layer_0/kernel/Initializer/random_uniform/shape"
  attr {
    key: "T"
    value {
      type: DT_INT32
    }
  }
  attr {
    key: "_class"
    value {
      list {
        s: "loc:@RNN_net/stacked_rnn_cells/LSTM_Layer_0/kernel"
      }
    }
  }
  attr {
    key: "_output_shapes"
    value {
      list {
        shape {
          dim {
            size: 13
          }
          dim {
            size: 128
          }
        }
      }
    }
  }
  attr {
    key: "dtype"
    value {
      type: DT_FLOAT
    }
  }
  attr {
    key: "seed"
    value {
      i: 0
    }
  }
  attr {
    key: "seed2"
    value {
      i: 0
    }
  }
}
node {
  name: "RNN_net/stacked_rnn_cells/LSTM_Layer_0/kernel/Initializer/random_uniform/sub"
  op: "Sub"
  input: "RNN_net/stacked_rnn_cells/LSTM_Layer_0/kernel/Initializer/random_uniform/max"
  input: "RNN_net/stacked_rnn_cells/LSTM_Layer_0/kernel/Initializer/random_uniform/min"
  attr {
    key: "T"
    value {
      type: DT_FLOAT
    }
  }
  attr {
    key: "_class"
    value {
      list {
        s: "loc:@RNN_net/stacked_rnn_cells/LSTM_Layer_0/kernel"
      }
    }
  }
  attr {
    key: "_output_shapes"
    value {
      list {
        shape {
        }
      }
    }
  }
}
node {
  name: "RNN_net/stacked_rnn_cells/LSTM_Layer_0/kernel/Initializer/random_uniform/mul"
  op: "Mul"
  input: "RNN_net/stacked_rnn_cells/LSTM_Layer_0/kernel/Initializer/random_uniform/RandomUniform"
  input: "RNN_net/stacked_rnn_cells/LSTM_Layer_0/kernel/Initializer/random_uniform/sub"
  attr {
    key: "T"
    value {
      type: DT_FLOAT
    }
  }
  attr {
    key: "_class"
    value {
      list {
        s: "loc:@RNN_net/stacked_rnn_cells/LSTM_Layer_0/kernel"
      }
    }
  }
  attr {
    key: "_output_shapes"
    value {
      list {
        shape {
          dim {
            size: 13
          }
          dim {
            size: 128
          }
        }
      }
    }
  }
}
node {
  name: "RNN_net/stacked_rnn_cells/LSTM_Layer_0/kernel/Initializer/random_uniform"
  op: "AddV2"
  input: "RNN_net/stacked_rnn_cells/LSTM_Layer_0/kernel/Initializer/random_uniform/mul"
  input: "RNN_net/stacked_rnn_cells/LSTM_Layer_0/kernel/Initializer/random_uniform/min"
  attr {
    key: "T"
    value {
      type: DT_FLOAT
    }
  }
  attr {
    key: "_class"
    value {
      list {
        s: "loc:@RNN_net/stacked_rnn_cells/LSTM_Layer_0/kernel"
      }
    }
  }
  attr {
    key: "_output_shapes"
    value {
      list {
        shape {
          dim {
            size: 13
          }
          dim {
            size: 128
          }
        }
      }
    }
  }
}
node {
  name: "RNN_net/stacked_rnn_cells/LSTM_Layer_0/kernel"
  op: "VarHandleOp"
  attr {
    key: "_class"
    value {
      list {
        s: "loc:@RNN_net/stacked_rnn_cells/LSTM_Layer_0/kernel"
      }
    }
  }
  attr {
    key: "_output_shapes"
    value {
      list {
        shape {
        }
      }
    }
  }
  attr {
    key: "allowed_devices"
    value {
      list {
      }
    }
  }
  attr {
    key: "container"
    value {
      s: ""
    }
  }
  attr {
    key: "dtype"
    value {
      type: DT_FLOAT
    }
  }
  attr {
    key: "shape"
    value {
      shape {
        dim {
          size: 13
        }
        dim {
          size: 128
        }
      }
    }
  }
  attr {
    key: "shared_name"
    value {
      s: "RNN_net/stacked_rnn_cells/LSTM_Layer_0/kernel"
    }
  }
}
node {
  name: "RNN_net/stacked_rnn_cells/LSTM_Layer_0/kernel/IsInitialized/VarIsInitializedOp"
  op: "VarIsInitializedOp"
  input: "RNN_net/stacked_rnn_cells/LSTM_Layer_0/kernel"
  attr {
    key: "_output_shapes"
    value {
      list {
        shape {
        }
      }
    }
  }
}
node {
  name: "RNN_net/stacked_rnn_cells/LSTM_Layer_0/kernel/Assign"
  op: "AssignVariableOp"
  input: "RNN_net/stacked_rnn_cells/LSTM_Layer_0/kernel"
  input: "RNN_net/stacked_rnn_cells/LSTM_Layer_0/kernel/Initializer/random_uniform"
  attr {
    key: "dtype"
    value {
      type: DT_FLOAT
    }
  }
  attr {
    key: "validate_shape"
    value {
      b: false
    }
  }
}
node {
  name: "RNN_net/stacked_rnn_cells/LSTM_Layer_0/kernel/Read/ReadVariableOp"
  op: "ReadVariableOp"
  input: "RNN_net/stacked_rnn_cells/LSTM_Layer_0/kernel"
  attr {
    key: "_output_shapes"
    value {
      list {
        shape {
          dim {
            size: 13
          }
          dim {
            size: 128
          }
        }
      }
    }
  }
  attr {
    key: "dtype"
    value {
      type: DT_FLOAT
    }
  }
}
node {
  name: "RNN_net/stacked_rnn_cells/LSTM_Layer_0/recurrent_kernel/Initializer/random_normal/shape"
  op: "Const"
  attr {
    key: "_class"
    value {
      list {
        s: "loc:@RNN_net/stacked_rnn_cells/LSTM_Layer_0/recurrent_kernel"
      }
    }
  }
  attr {
    key: "_output_shapes"
    value {
      list {
        shape {
          dim {
            size: 2
          }
        }
      }
    }
  }
  attr {
    key: "dtype"
    value {
      type: DT_INT32
    }
  }
  attr {
    key: "value"
    value {
      tensor {
        dtype: DT_INT32
        tensor_shape {
          dim {
            size: 2
          }
        }
        tensor_content: "\200\000\000\000 \000\000\000"
      }
    }
  }
}
node {
  name: "RNN_net/stacked_rnn_cells/LSTM_Layer_0/recurrent_kernel/Initializer/random_normal/mean"
  op: "Const"
  attr {
    key: "_class"
    value {
      list {
        s: "loc:@RNN_net/stacked_rnn_cells/LSTM_Layer_0/recurrent_kernel"
      }
    }
  }
  attr {
    key: "_output_shapes"
    value {
      list {
        shape {
        }
      }
    }
  }
  attr {
    key: "dtype"
    value {
      type: DT_FLOAT
    }
  }
  attr {
    key: "value"
    value {
      tensor {
        dtype: DT_FLOAT
        tensor_shape {
        }
        float_val: 0.0
      }
    }
  }
}
node {
  name: "RNN_net/stacked_rnn_cells/LSTM_Layer_0/recurrent_kernel/Initializer/random_normal/stddev"
  op: "Const"
  attr {
    key: "_class"
    value {
      list {
        s: "loc:@RNN_net/stacked_rnn_cells/LSTM_Layer_0/recurrent_kernel"
      }
    }
  }
  attr {
    key: "_output_shapes"
    value {
      list {
        shape {
        }
      }
    }
  }
  attr {
    key: "dtype"
    value {
      type: DT_FLOAT
    }
  }
  attr {
    key: "value"
    value {
      tensor {
        dtype: DT_FLOAT
        tensor_shape {
        }
        float_val: 1.0
      }
    }
  }
}
node {
  name: "RNN_net/stacked_rnn_cells/LSTM_Layer_0/recurrent_kernel/Initializer/random_normal/RandomStandardNormal"
  op: "RandomStandardNormal"
  input: "RNN_net/stacked_rnn_cells/LSTM_Layer_0/recurrent_kernel/Initializer/random_normal/shape"
  attr {
    key: "T"
    value {
      type: DT_INT32
    }
  }
  attr {
    key: "_class"
    value {
      list {
        s: "loc:@RNN_net/stacked_rnn_cells/LSTM_Layer_0/recurrent_kernel"
      }
    }
  }
  attr {
    key: "_output_shapes"
    value {
      list {
        shape {
          dim {
            size: 128
          }
          dim {
            size: 32
          }
        }
      }
    }
  }
  attr {
    key: "dtype"
    value {
      type: DT_FLOAT
    }
  }
  attr {
    key: "seed"
    value {
      i: 0
    }
  }
  attr {
    key: "seed2"
    value {
      i: 0
    }
  }
}
node {
  name: "RNN_net/stacked_rnn_cells/LSTM_Layer_0/recurrent_kernel/Initializer/random_normal/mul"
  op: "Mul"
  input: "RNN_net/stacked_rnn_cells/LSTM_Layer_0/recurrent_kernel/Initializer/random_normal/RandomStandardNormal"
  input: "RNN_net/stacked_rnn_cells/LSTM_Layer_0/recurrent_kernel/Initializer/random_normal/stddev"
  attr {
    key: "T"
    value {
      type: DT_FLOAT
    }
  }
  attr {
    key: "_class"
    value {
      list {
        s: "loc:@RNN_net/stacked_rnn_cells/LSTM_Layer_0/recurrent_kernel"
      }
    }
  }
  attr {
    key: "_output_shapes"
    value {
      list {
        shape {
          dim {
            size: 128
          }
          dim {
            size: 32
          }
        }
      }
    }
  }
}
node {
  name: "RNN_net/stacked_rnn_cells/LSTM_Layer_0/recurrent_kernel/Initializer/random_normal"
  op: "AddV2"
  input: "RNN_net/stacked_rnn_cells/LSTM_Layer_0/recurrent_kernel/Initializer/random_normal/mul"
  input: "RNN_net/stacked_rnn_cells/LSTM_Layer_0/recurrent_kernel/Initializer/random_normal/mean"
  attr {
    key: "T"
    value {
      type: DT_FLOAT
    }
  }
  attr {
    key: "_class"
    value {
      list {
        s: "loc:@RNN_net/stacked_rnn_cells/LSTM_Layer_0/recurrent_kernel"
      }
    }
  }
  attr {
    key: "_output_shapes"
    value {
      list {
        shape {
          dim {
            size: 128
          }
          dim {
            size: 32
          }
        }
      }
    }
  }
}
node {
  name: "RNN_net/stacked_rnn_cells/LSTM_Layer_0/recurrent_kernel/Initializer/Qr"
  op: "Qr"
  input: "RNN_net/stacked_rnn_cells/LSTM_Layer_0/recurrent_kernel/Initializer/random_normal"
  attr {
    key: "T"
    value {
      type: DT_FLOAT
    }
  }
  attr {
    key: "_class"
    value {
      list {
        s: "loc:@RNN_net/stacked_rnn_cells/LSTM_Layer_0/recurrent_kernel"
      }
    }
  }
  attr {
    key: "_output_shapes"
    value {
      list {
        shape {
          dim {
            size: 128
          }
          dim {
            size: 32
          }
        }
        shape {
          dim {
            size: 32
          }
          dim {
            size: 32
          }
        }
      }
    }
  }
  attr {
    key: "full_matrices"
    value {
      b: false
    }
  }
}
node {
  name: "RNN_net/stacked_rnn_cells/LSTM_Layer_0/recurrent_kernel/Initializer/DiagPart"
  op: "DiagPart"
  input: "RNN_net/stacked_rnn_cells/LSTM_Layer_0/recurrent_kernel/Initializer/Qr:1"
  attr {
    key: "T"
    value {
      type: DT_FLOAT
    }
  }
  attr {
    key: "_class"
    value {
      list {
        s: "loc:@RNN_net/stacked_rnn_cells/LSTM_Layer_0/recurrent_kernel"
      }
    }
  }
  attr {
    key: "_output_shapes"
    value {
      list {
        shape {
          dim {
            size: 32
          }
        }
      }
    }
  }
}
node {
  name: "RNN_net/stacked_rnn_cells/LSTM_Layer_0/recurrent_kernel/Initializer/Sign"
  op: "Sign"
  input: "RNN_net/stacked_rnn_cells/LSTM_Layer_0/recurrent_kernel/Initializer/DiagPart"
  attr {
    key: "T"
    value {
      type: DT_FLOAT
    }
  }
  attr {
    key: "_class"
    value {
      list {
        s: "loc:@RNN_net/stacked_rnn_cells/LSTM_Layer_0/recurrent_kernel"
      }
    }
  }
  attr {
    key: "_output_shapes"
    value {
      list {
        shape {
          dim {
            size: 32
          }
        }
      }
    }
  }
}
node {
  name: "RNN_net/stacked_rnn_cells/LSTM_Layer_0/recurrent_kernel/Initializer/mul"
  op: "Mul"
  input: "RNN_net/stacked_rnn_cells/LSTM_Layer_0/recurrent_kernel/Initializer/Qr"
  input: "RNN_net/stacked_rnn_cells/LSTM_Layer_0/recurrent_kernel/Initializer/Sign"
  attr {
    key: "T"
    value {
      type: DT_FLOAT
    }
  }
  attr {
    key: "_class"
    value {
      list {
        s: "loc:@RNN_net/stacked_rnn_cells/LSTM_Layer_0/recurrent_kernel"
      }
    }
  }
  attr {
    key: "_output_shapes"
    value {
      list {
        shape {
          dim {
            size: 128
          }
          dim {
            size: 32
          }
        }
      }
    }
  }
}
node {
  name: "RNN_net/stacked_rnn_cells/LSTM_Layer_0/recurrent_kernel/Initializer/matrix_transpose/transpose/perm"
  op: "Const"
  attr {
    key: "_class"
    value {
      list {
        s: "loc:@RNN_net/stacked_rnn_cells/LSTM_Layer_0/recurrent_kernel"
      }
    }
  }
  attr {
    key: "_output_shapes"
    value {
      list {
        shape {
          dim {
            size: 2
          }
        }
      }
    }
  }
  attr {
    key: "dtype"
    value {
      type: DT_INT32
    }
  }
  attr {
    key: "value"
    value {
      tensor {
        dtype: DT_INT32
        tensor_shape {
          dim {
            size: 2
          }
        }
        tensor_content: "\001\000\000\000\000\000\000\000"
      }
    }
  }
}
node {
  name: "RNN_net/stacked_rnn_cells/LSTM_Layer_0/recurrent_kernel/Initializer/matrix_transpose/transpose"
  op: "Transpose"
  input: "RNN_net/stacked_rnn_cells/LSTM_Layer_0/recurrent_kernel/Initializer/mul"
  input: "RNN_net/stacked_rnn_cells/LSTM_Layer_0/recurrent_kernel/Initializer/matrix_transpose/transpose/perm"
  attr {
    key: "T"
    value {
      type: DT_FLOAT
    }
  }
  attr {
    key: "Tperm"
    value {
      type: DT_INT32
    }
  }
  attr {
    key: "_class"
    value {
      list {
        s: "loc:@RNN_net/stacked_rnn_cells/LSTM_Layer_0/recurrent_kernel"
      }
    }
  }
  attr {
    key: "_output_shapes"
    value {
      list {
        shape {
          dim {
            size: 32
          }
          dim {
            size: 128
          }
        }
      }
    }
  }
}
node {
  name: "RNN_net/stacked_rnn_cells/LSTM_Layer_0/recurrent_kernel/Initializer/Reshape/shape"
  op: "Const"
  attr {
    key: "_class"
    value {
      list {
        s: "loc:@RNN_net/stacked_rnn_cells/LSTM_Layer_0/recurrent_kernel"
      }
    }
  }
  attr {
    key: "_output_shapes"
    value {
      list {
        shape {
          dim {
            size: 2
          }
        }
      }
    }
  }
  attr {
    key: "dtype"
    value {
      type: DT_INT32
    }
  }
  attr {
    key: "value"
    value {
      tensor {
        dtype: DT_INT32
        tensor_shape {
          dim {
            size: 2
          }
        }
        tensor_content: " \000\000\000\200\000\000\000"
      }
    }
  }
}
node {
  name: "RNN_net/stacked_rnn_cells/LSTM_Layer_0/recurrent_kernel/Initializer/Reshape"
  op: "Reshape"
  input: "RNN_net/stacked_rnn_cells/LSTM_Layer_0/recurrent_kernel/Initializer/matrix_transpose/transpose"
  input: "RNN_net/stacked_rnn_cells/LSTM_Layer_0/recurrent_kernel/Initializer/Reshape/shape"
  attr {
    key: "T"
    value {
      type: DT_FLOAT
    }
  }
  attr {
    key: "Tshape"
    value {
      type: DT_INT32
    }
  }
  attr {
    key: "_class"
    value {
      list {
        s: "loc:@RNN_net/stacked_rnn_cells/LSTM_Layer_0/recurrent_kernel"
      }
    }
  }
  attr {
    key: "_output_shapes"
    value {
      list {
        shape {
          dim {
            size: 32
          }
          dim {
            size: 128
          }
        }
      }
    }
  }
}
node {
  name: "RNN_net/stacked_rnn_cells/LSTM_Layer_0/recurrent_kernel/Initializer/mul_1/x"
  op: "Const"
  attr {
    key: "_class"
    value {
      list {
        s: "loc:@RNN_net/stacked_rnn_cells/LSTM_Layer_0/recurrent_kernel"
      }
    }
  }
  attr {
    key: "_output_shapes"
    value {
      list {
        shape {
        }
      }
    }
  }
  attr {
    key: "dtype"
    value {
      type: DT_FLOAT
    }
  }
  attr {
    key: "value"
    value {
      tensor {
        dtype: DT_FLOAT
        tensor_shape {
        }
        float_val: 1.0
      }
    }
  }
}
node {
  name: "RNN_net/stacked_rnn_cells/LSTM_Layer_0/recurrent_kernel/Initializer/mul_1"
  op: "Mul"
  input: "RNN_net/stacked_rnn_cells/LSTM_Layer_0/recurrent_kernel/Initializer/mul_1/x"
  input: "RNN_net/stacked_rnn_cells/LSTM_Layer_0/recurrent_kernel/Initializer/Reshape"
  attr {
    key: "T"
    value {
      type: DT_FLOAT
    }
  }
  attr {
    key: "_class"
    value {
      list {
        s: "loc:@RNN_net/stacked_rnn_cells/LSTM_Layer_0/recurrent_kernel"
      }
    }
  }
  attr {
    key: "_output_shapes"
    value {
      list {
        shape {
          dim {
            size: 32
          }
          dim {
            size: 128
          }
        }
      }
    }
  }
}
node {
  name: "RNN_net/stacked_rnn_cells/LSTM_Layer_0/recurrent_kernel"
  op: "VarHandleOp"
  attr {
    key: "_class"
    value {
      list {
        s: "loc:@RNN_net/stacked_rnn_cells/LSTM_Layer_0/recurrent_kernel"
      }
    }
  }
  attr {
    key: "_output_shapes"
    value {
      list {
        shape {
        }
      }
    }
  }
  attr {
    key: "allowed_devices"
    value {
      list {
      }
    }
  }
  attr {
    key: "container"
    value {
      s: ""
    }
  }
  attr {
    key: "dtype"
    value {
      type: DT_FLOAT
    }
  }
  attr {
    key: "shape"
    value {
      shape {
        dim {
          size: 32
        }
        dim {
          size: 128
        }
      }
    }
  }
  attr {
    key: "shared_name"
    value {
      s: "RNN_net/stacked_rnn_cells/LSTM_Layer_0/recurrent_kernel"
    }
  }
}
node {
  name: "RNN_net/stacked_rnn_cells/LSTM_Layer_0/recurrent_kernel/IsInitialized/VarIsInitializedOp"
  op: "VarIsInitializedOp"
  input: "RNN_net/stacked_rnn_cells/LSTM_Layer_0/recurrent_kernel"
  attr {
    key: "_output_shapes"
    value {
      list {
        shape {
        }
      }
    }
  }
}
node {
  name: "RNN_net/stacked_rnn_cells/LSTM_Layer_0/recurrent_kernel/Assign"
  op: "AssignVariableOp"
  input: "RNN_net/stacked_rnn_cells/LSTM_Layer_0/recurrent_kernel"
  input: "RNN_net/stacked_rnn_cells/LSTM_Layer_0/recurrent_kernel/Initializer/mul_1"
  attr {
    key: "dtype"
    value {
      type: DT_FLOAT
    }
  }
  attr {
    key: "validate_shape"
    value {
      b: false
    }
  }
}
node {
  name: "RNN_net/stacked_rnn_cells/LSTM_Layer_0/recurrent_kernel/Read/ReadVariableOp"
  op: "ReadVariableOp"
  input: "RNN_net/stacked_rnn_cells/LSTM_Layer_0/recurrent_kernel"
  attr {
    key: "_output_shapes"
    value {
      list {
        shape {
          dim {
            size: 32
          }
          dim {
            size: 128
          }
        }
      }
    }
  }
  attr {
    key: "dtype"
    value {
      type: DT_FLOAT
    }
  }
}
node {
  name: "RNN_net/stacked_rnn_cells/LSTM_Layer_0/bias/Initializer/zeros"
  op: "Const"
  attr {
    key: "_class"
    value {
      list {
        s: "loc:@RNN_net/stacked_rnn_cells/LSTM_Layer_0/bias"
      }
    }
  }
  attr {
    key: "_output_shapes"
    value {
      list {
        shape {
          dim {
            size: 32
          }
        }
      }
    }
  }
  attr {
    key: "dtype"
    value {
      type: DT_FLOAT
    }
  }
  attr {
    key: "value"
    value {
      tensor {
        dtype: DT_FLOAT
        tensor_shape {
          dim {
            size: 32
          }
        }
        float_val: 0.0
      }
    }
  }
}
node {
  name: "RNN_net/stacked_rnn_cells/LSTM_Layer_0/bias/Initializer/ones"
  op: "Const"
  attr {
    key: "_class"
    value {
      list {
        s: "loc:@RNN_net/stacked_rnn_cells/LSTM_Layer_0/bias"
      }
    }
  }
  attr {
    key: "_output_shapes"
    value {
      list {
        shape {
          dim {
            size: 32
          }
        }
      }
    }
  }
  attr {
    key: "dtype"
    value {
      type: DT_FLOAT
    }
  }
  attr {
    key: "value"
    value {
      tensor {
        dtype: DT_FLOAT
        tensor_shape {
          dim {
            size: 32
          }
        }
        float_val: 1.0
      }
    }
  }
}
node {
  name: "RNN_net/stacked_rnn_cells/LSTM_Layer_0/bias/Initializer/zeros_1"
  op: "Const"
  attr {
    key: "_class"
    value {
      list {
        s: "loc:@RNN_net/stacked_rnn_cells/LSTM_Layer_0/bias"
      }
    }
  }
  attr {
    key: "_output_shapes"
    value {
      list {
        shape {
          dim {
            size: 64
          }
        }
      }
    }
  }
  attr {
    key: "dtype"
    value {
      type: DT_FLOAT
    }
  }
  attr {
    key: "value"
    value {
      tensor {
        dtype: DT_FLOAT
        tensor_shape {
          dim {
            size: 64
          }
        }
        float_val: 0.0
      }
    }
  }
}
node {
  name: "RNN_net/stacked_rnn_cells/LSTM_Layer_0/bias/Initializer/concat/axis"
  op: "Const"
  attr {
    key: "_class"
    value {
      list {
        s: "loc:@RNN_net/stacked_rnn_cells/LSTM_Layer_0/bias"
      }
    }
  }
  attr {
    key: "_output_shapes"
    value {
      list {
        shape {
        }
      }
    }
  }
  attr {
    key: "dtype"
    value {
      type: DT_INT32
    }
  }
  attr {
    key: "value"
    value {
      tensor {
        dtype: DT_INT32
        tensor_shape {
        }
        int_val: 0
      }
    }
  }
}
node {
  name: "RNN_net/stacked_rnn_cells/LSTM_Layer_0/bias/Initializer/concat"
  op: "ConcatV2"
  input: "RNN_net/stacked_rnn_cells/LSTM_Layer_0/bias/Initializer/zeros"
  input: "RNN_net/stacked_rnn_cells/LSTM_Layer_0/bias/Initializer/ones"
  input: "RNN_net/stacked_rnn_cells/LSTM_Layer_0/bias/Initializer/zeros_1"
  input: "RNN_net/stacked_rnn_cells/LSTM_Layer_0/bias/Initializer/concat/axis"
  attr {
    key: "N"
    value {
      i: 3
    }
  }
  attr {
    key: "T"
    value {
      type: DT_FLOAT
    }
  }
  attr {
    key: "Tidx"
    value {
      type: DT_INT32
    }
  }
  attr {
    key: "_class"
    value {
      list {
        s: "loc:@RNN_net/stacked_rnn_cells/LSTM_Layer_0/bias"
      }
    }
  }
  attr {
    key: "_output_shapes"
    value {
      list {
        shape {
          dim {
            size: 128
          }
        }
      }
    }
  }
}
node {
  name: "RNN_net/stacked_rnn_cells/LSTM_Layer_0/bias"
  op: "VarHandleOp"
  attr {
    key: "_class"
    value {
      list {
        s: "loc:@RNN_net/stacked_rnn_cells/LSTM_Layer_0/bias"
      }
    }
  }
  attr {
    key: "_output_shapes"
    value {
      list {
        shape {
        }
      }
    }
  }
  attr {
    key: "allowed_devices"
    value {
      list {
      }
    }
  }
  attr {
    key: "container"
    value {
      s: ""
    }
  }
  attr {
    key: "dtype"
    value {
      type: DT_FLOAT
    }
  }
  attr {
    key: "shape"
    value {
      shape {
        dim {
          size: 128
        }
      }
    }
  }
  attr {
    key: "shared_name"
    value {
      s: "RNN_net/stacked_rnn_cells/LSTM_Layer_0/bias"
    }
  }
}
node {
  name: "RNN_net/stacked_rnn_cells/LSTM_Layer_0/bias/IsInitialized/VarIsInitializedOp"
  op: "VarIsInitializedOp"
  input: "RNN_net/stacked_rnn_cells/LSTM_Layer_0/bias"
  attr {
    key: "_output_shapes"
    value {
      list {
        shape {
        }
      }
    }
  }
}
node {
  name: "RNN_net/stacked_rnn_cells/LSTM_Layer_0/bias/Assign"
  op: "AssignVariableOp"
  input: "RNN_net/stacked_rnn_cells/LSTM_Layer_0/bias"
  input: "RNN_net/stacked_rnn_cells/LSTM_Layer_0/bias/Initializer/concat"
  attr {
    key: "dtype"
    value {
      type: DT_FLOAT
    }
  }
  attr {
    key: "validate_shape"
    value {
      b: false
    }
  }
}
node {
  name: "RNN_net/stacked_rnn_cells/LSTM_Layer_0/bias/Read/ReadVariableOp"
  op: "ReadVariableOp"
  input: "RNN_net/stacked_rnn_cells/LSTM_Layer_0/bias"
  attr {
    key: "_output_shapes"
    value {
      list {
        shape {
          dim {
            size: 128
          }
        }
      }
    }
  }
  attr {
    key: "dtype"
    value {
      type: DT_FLOAT
    }
  }
}
node {
  name: "RNN_net/stacked_rnn_cells/LSTM_Layer_1/kernel/Initializer/random_uniform/shape"
  op: "Const"
  attr {
    key: "_class"
    value {
      list {
        s: "loc:@RNN_net/stacked_rnn_cells/LSTM_Layer_1/kernel"
      }
    }
  }
  attr {
    key: "_output_shapes"
    value {
      list {
        shape {
          dim {
            size: 2
          }
        }
      }
    }
  }
  attr {
    key: "dtype"
    value {
      type: DT_INT32
    }
  }
  attr {
    key: "value"
    value {
      tensor {
        dtype: DT_INT32
        tensor_shape {
          dim {
            size: 2
          }
        }
        tensor_content: " \000\000\000\200\000\000\000"
      }
    }
  }
}
node {
  name: "RNN_net/stacked_rnn_cells/LSTM_Layer_1/kernel/Initializer/random_uniform/min"
  op: "Const"
  attr {
    key: "_class"
    value {
      list {
        s: "loc:@RNN_net/stacked_rnn_cells/LSTM_Layer_1/kernel"
      }
    }
  }
  attr {
    key: "_output_shapes"
    value {
      list {
        shape {
        }
      }
    }
  }
  attr {
    key: "dtype"
    value {
      type: DT_FLOAT
    }
  }
  attr {
    key: "value"
    value {
      tensor {
        dtype: DT_FLOAT
        tensor_shape {
        }
        float_val: -0.19364917278289795
      }
    }
  }
}
node {
  name: "RNN_net/stacked_rnn_cells/LSTM_Layer_1/kernel/Initializer/random_uniform/max"
  op: "Const"
  attr {
    key: "_class"
    value {
      list {
        s: "loc:@RNN_net/stacked_rnn_cells/LSTM_Layer_1/kernel"
      }
    }
  }
  attr {
    key: "_output_shapes"
    value {
      list {
        shape {
        }
      }
    }
  }
  attr {
    key: "dtype"
    value {
      type: DT_FLOAT
    }
  }
  attr {
    key: "value"
    value {
      tensor {
        dtype: DT_FLOAT
        tensor_shape {
        }
        float_val: 0.19364917278289795
      }
    }
  }
}
node {
  name: "RNN_net/stacked_rnn_cells/LSTM_Layer_1/kernel/Initializer/random_uniform/RandomUniform"
  op: "RandomUniform"
  input: "RNN_net/stacked_rnn_cells/LSTM_Layer_1/kernel/Initializer/random_uniform/shape"
  attr {
    key: "T"
    value {
      type: DT_INT32
    }
  }
  attr {
    key: "_class"
    value {
      list {
        s: "loc:@RNN_net/stacked_rnn_cells/LSTM_Layer_1/kernel"
      }
    }
  }
  attr {
    key: "_output_shapes"
    value {
      list {
        shape {
          dim {
            size: 32
          }
          dim {
            size: 128
          }
        }
      }
    }
  }
  attr {
    key: "dtype"
    value {
      type: DT_FLOAT
    }
  }
  attr {
    key: "seed"
    value {
      i: 0
    }
  }
  attr {
    key: "seed2"
    value {
      i: 0
    }
  }
}
node {
  name: "RNN_net/stacked_rnn_cells/LSTM_Layer_1/kernel/Initializer/random_uniform/sub"
  op: "Sub"
  input: "RNN_net/stacked_rnn_cells/LSTM_Layer_1/kernel/Initializer/random_uniform/max"
  input: "RNN_net/stacked_rnn_cells/LSTM_Layer_1/kernel/Initializer/random_uniform/min"
  attr {
    key: "T"
    value {
      type: DT_FLOAT
    }
  }
  attr {
    key: "_class"
    value {
      list {
        s: "loc:@RNN_net/stacked_rnn_cells/LSTM_Layer_1/kernel"
      }
    }
  }
  attr {
    key: "_output_shapes"
    value {
      list {
        shape {
        }
      }
    }
  }
}
node {
  name: "RNN_net/stacked_rnn_cells/LSTM_Layer_1/kernel/Initializer/random_uniform/mul"
  op: "Mul"
  input: "RNN_net/stacked_rnn_cells/LSTM_Layer_1/kernel/Initializer/random_uniform/RandomUniform"
  input: "RNN_net/stacked_rnn_cells/LSTM_Layer_1/kernel/Initializer/random_uniform/sub"
  attr {
    key: "T"
    value {
      type: DT_FLOAT
    }
  }
  attr {
    key: "_class"
    value {
      list {
        s: "loc:@RNN_net/stacked_rnn_cells/LSTM_Layer_1/kernel"
      }
    }
  }
  attr {
    key: "_output_shapes"
    value {
      list {
        shape {
          dim {
            size: 32
          }
          dim {
            size: 128
          }
        }
      }
    }
  }
}
node {
  name: "RNN_net/stacked_rnn_cells/LSTM_Layer_1/kernel/Initializer/random_uniform"
  op: "AddV2"
  input: "RNN_net/stacked_rnn_cells/LSTM_Layer_1/kernel/Initializer/random_uniform/mul"
  input: "RNN_net/stacked_rnn_cells/LSTM_Layer_1/kernel/Initializer/random_uniform/min"
  attr {
    key: "T"
    value {
      type: DT_FLOAT
    }
  }
  attr {
    key: "_class"
    value {
      list {
        s: "loc:@RNN_net/stacked_rnn_cells/LSTM_Layer_1/kernel"
      }
    }
  }
  attr {
    key: "_output_shapes"
    value {
      list {
        shape {
          dim {
            size: 32
          }
          dim {
            size: 128
          }
        }
      }
    }
  }
}
node {
  name: "RNN_net/stacked_rnn_cells/LSTM_Layer_1/kernel"
  op: "VarHandleOp"
  attr {
    key: "_class"
    value {
      list {
        s: "loc:@RNN_net/stacked_rnn_cells/LSTM_Layer_1/kernel"
      }
    }
  }
  attr {
    key: "_output_shapes"
    value {
      list {
        shape {
        }
      }
    }
  }
  attr {
    key: "allowed_devices"
    value {
      list {
      }
    }
  }
  attr {
    key: "container"
    value {
      s: ""
    }
  }
  attr {
    key: "dtype"
    value {
      type: DT_FLOAT
    }
  }
  attr {
    key: "shape"
    value {
      shape {
        dim {
          size: 32
        }
        dim {
          size: 128
        }
      }
    }
  }
  attr {
    key: "shared_name"
    value {
      s: "RNN_net/stacked_rnn_cells/LSTM_Layer_1/kernel"
    }
  }
}
node {
  name: "RNN_net/stacked_rnn_cells/LSTM_Layer_1/kernel/IsInitialized/VarIsInitializedOp"
  op: "VarIsInitializedOp"
  input: "RNN_net/stacked_rnn_cells/LSTM_Layer_1/kernel"
  attr {
    key: "_output_shapes"
    value {
      list {
        shape {
        }
      }
    }
  }
}
node {
  name: "RNN_net/stacked_rnn_cells/LSTM_Layer_1/kernel/Assign"
  op: "AssignVariableOp"
  input: "RNN_net/stacked_rnn_cells/LSTM_Layer_1/kernel"
  input: "RNN_net/stacked_rnn_cells/LSTM_Layer_1/kernel/Initializer/random_uniform"
  attr {
    key: "dtype"
    value {
      type: DT_FLOAT
    }
  }
  attr {
    key: "validate_shape"
    value {
      b: false
    }
  }
}
node {
  name: "RNN_net/stacked_rnn_cells/LSTM_Layer_1/kernel/Read/ReadVariableOp"
  op: "ReadVariableOp"
  input: "RNN_net/stacked_rnn_cells/LSTM_Layer_1/kernel"
  attr {
    key: "_output_shapes"
    value {
      list {
        shape {
          dim {
            size: 32
          }
          dim {
            size: 128
          }
        }
      }
    }
  }
  attr {
    key: "dtype"
    value {
      type: DT_FLOAT
    }
  }
}
node {
  name: "RNN_net/stacked_rnn_cells/LSTM_Layer_1/recurrent_kernel/Initializer/random_normal/shape"
  op: "Const"
  attr {
    key: "_class"
    value {
      list {
        s: "loc:@RNN_net/stacked_rnn_cells/LSTM_Layer_1/recurrent_kernel"
      }
    }
  }
  attr {
    key: "_output_shapes"
    value {
      list {
        shape {
          dim {
            size: 2
          }
        }
      }
    }
  }
  attr {
    key: "dtype"
    value {
      type: DT_INT32
    }
  }
  attr {
    key: "value"
    value {
      tensor {
        dtype: DT_INT32
        tensor_shape {
          dim {
            size: 2
          }
        }
        tensor_content: "\200\000\000\000 \000\000\000"
      }
    }
  }
}
node {
  name: "RNN_net/stacked_rnn_cells/LSTM_Layer_1/recurrent_kernel/Initializer/random_normal/mean"
  op: "Const"
  attr {
    key: "_class"
    value {
      list {
        s: "loc:@RNN_net/stacked_rnn_cells/LSTM_Layer_1/recurrent_kernel"
      }
    }
  }
  attr {
    key: "_output_shapes"
    value {
      list {
        shape {
        }
      }
    }
  }
  attr {
    key: "dtype"
    value {
      type: DT_FLOAT
    }
  }
  attr {
    key: "value"
    value {
      tensor {
        dtype: DT_FLOAT
        tensor_shape {
        }
        float_val: 0.0
      }
    }
  }
}
node {
  name: "RNN_net/stacked_rnn_cells/LSTM_Layer_1/recurrent_kernel/Initializer/random_normal/stddev"
  op: "Const"
  attr {
    key: "_class"
    value {
      list {
        s: "loc:@RNN_net/stacked_rnn_cells/LSTM_Layer_1/recurrent_kernel"
      }
    }
  }
  attr {
    key: "_output_shapes"
    value {
      list {
        shape {
        }
      }
    }
  }
  attr {
    key: "dtype"
    value {
      type: DT_FLOAT
    }
  }
  attr {
    key: "value"
    value {
      tensor {
        dtype: DT_FLOAT
        tensor_shape {
        }
        float_val: 1.0
      }
    }
  }
}
node {
  name: "RNN_net/stacked_rnn_cells/LSTM_Layer_1/recurrent_kernel/Initializer/random_normal/RandomStandardNormal"
  op: "RandomStandardNormal"
  input: "RNN_net/stacked_rnn_cells/LSTM_Layer_1/recurrent_kernel/Initializer/random_normal/shape"
  attr {
    key: "T"
    value {
      type: DT_INT32
    }
  }
  attr {
    key: "_class"
    value {
      list {
        s: "loc:@RNN_net/stacked_rnn_cells/LSTM_Layer_1/recurrent_kernel"
      }
    }
  }
  attr {
    key: "_output_shapes"
    value {
      list {
        shape {
          dim {
            size: 128
          }
          dim {
            size: 32
          }
        }
      }
    }
  }
  attr {
    key: "dtype"
    value {
      type: DT_FLOAT
    }
  }
  attr {
    key: "seed"
    value {
      i: 0
    }
  }
  attr {
    key: "seed2"
    value {
      i: 0
    }
  }
}
node {
  name: "RNN_net/stacked_rnn_cells/LSTM_Layer_1/recurrent_kernel/Initializer/random_normal/mul"
  op: "Mul"
  input: "RNN_net/stacked_rnn_cells/LSTM_Layer_1/recurrent_kernel/Initializer/random_normal/RandomStandardNormal"
  input: "RNN_net/stacked_rnn_cells/LSTM_Layer_1/recurrent_kernel/Initializer/random_normal/stddev"
  attr {
    key: "T"
    value {
      type: DT_FLOAT
    }
  }
  attr {
    key: "_class"
    value {
      list {
        s: "loc:@RNN_net/stacked_rnn_cells/LSTM_Layer_1/recurrent_kernel"
      }
    }
  }
  attr {
    key: "_output_shapes"
    value {
      list {
        shape {
          dim {
            size: 128
          }
          dim {
            size: 32
          }
        }
      }
    }
  }
}
node {
  name: "RNN_net/stacked_rnn_cells/LSTM_Layer_1/recurrent_kernel/Initializer/random_normal"
  op: "AddV2"
  input: "RNN_net/stacked_rnn_cells/LSTM_Layer_1/recurrent_kernel/Initializer/random_normal/mul"
  input: "RNN_net/stacked_rnn_cells/LSTM_Layer_1/recurrent_kernel/Initializer/random_normal/mean"
  attr {
    key: "T"
    value {
      type: DT_FLOAT
    }
  }
  attr {
    key: "_class"
    value {
      list {
        s: "loc:@RNN_net/stacked_rnn_cells/LSTM_Layer_1/recurrent_kernel"
      }
    }
  }
  attr {
    key: "_output_shapes"
    value {
      list {
        shape {
          dim {
            size: 128
          }
          dim {
            size: 32
          }
        }
      }
    }
  }
}
node {
  name: "RNN_net/stacked_rnn_cells/LSTM_Layer_1/recurrent_kernel/Initializer/Qr"
  op: "Qr"
  input: "RNN_net/stacked_rnn_cells/LSTM_Layer_1/recurrent_kernel/Initializer/random_normal"
  attr {
    key: "T"
    value {
      type: DT_FLOAT
    }
  }
  attr {
    key: "_class"
    value {
      list {
        s: "loc:@RNN_net/stacked_rnn_cells/LSTM_Layer_1/recurrent_kernel"
      }
    }
  }
  attr {
    key: "_output_shapes"
    value {
      list {
        shape {
          dim {
            size: 128
          }
          dim {
            size: 32
          }
        }
        shape {
          dim {
            size: 32
          }
          dim {
            size: 32
          }
        }
      }
    }
  }
  attr {
    key: "full_matrices"
    value {
      b: false
    }
  }
}
node {
  name: "RNN_net/stacked_rnn_cells/LSTM_Layer_1/recurrent_kernel/Initializer/DiagPart"
  op: "DiagPart"
  input: "RNN_net/stacked_rnn_cells/LSTM_Layer_1/recurrent_kernel/Initializer/Qr:1"
  attr {
    key: "T"
    value {
      type: DT_FLOAT
    }
  }
  attr {
    key: "_class"
    value {
      list {
        s: "loc:@RNN_net/stacked_rnn_cells/LSTM_Layer_1/recurrent_kernel"
      }
    }
  }
  attr {
    key: "_output_shapes"
    value {
      list {
        shape {
          dim {
            size: 32
          }
        }
      }
    }
  }
}
node {
  name: "RNN_net/stacked_rnn_cells/LSTM_Layer_1/recurrent_kernel/Initializer/Sign"
  op: "Sign"
  input: "RNN_net/stacked_rnn_cells/LSTM_Layer_1/recurrent_kernel/Initializer/DiagPart"
  attr {
    key: "T"
    value {
      type: DT_FLOAT
    }
  }
  attr {
    key: "_class"
    value {
      list {
        s: "loc:@RNN_net/stacked_rnn_cells/LSTM_Layer_1/recurrent_kernel"
      }
    }
  }
  attr {
    key: "_output_shapes"
    value {
      list {
        shape {
          dim {
            size: 32
          }
        }
      }
    }
  }
}
node {
  name: "RNN_net/stacked_rnn_cells/LSTM_Layer_1/recurrent_kernel/Initializer/mul"
  op: "Mul"
  input: "RNN_net/stacked_rnn_cells/LSTM_Layer_1/recurrent_kernel/Initializer/Qr"
  input: "RNN_net/stacked_rnn_cells/LSTM_Layer_1/recurrent_kernel/Initializer/Sign"
  attr {
    key: "T"
    value {
      type: DT_FLOAT
    }
  }
  attr {
    key: "_class"
    value {
      list {
        s: "loc:@RNN_net/stacked_rnn_cells/LSTM_Layer_1/recurrent_kernel"
      }
    }
  }
  attr {
    key: "_output_shapes"
    value {
      list {
        shape {
          dim {
            size: 128
          }
          dim {
            size: 32
          }
        }
      }
    }
  }
}
node {
  name: "RNN_net/stacked_rnn_cells/LSTM_Layer_1/recurrent_kernel/Initializer/matrix_transpose/transpose/perm"
  op: "Const"
  attr {
    key: "_class"
    value {
      list {
        s: "loc:@RNN_net/stacked_rnn_cells/LSTM_Layer_1/recurrent_kernel"
      }
    }
  }
  attr {
    key: "_output_shapes"
    value {
      list {
        shape {
          dim {
            size: 2
          }
        }
      }
    }
  }
  attr {
    key: "dtype"
    value {
      type: DT_INT32
    }
  }
  attr {
    key: "value"
    value {
      tensor {
        dtype: DT_INT32
        tensor_shape {
          dim {
            size: 2
          }
        }
        tensor_content: "\001\000\000\000\000\000\000\000"
      }
    }
  }
}
node {
  name: "RNN_net/stacked_rnn_cells/LSTM_Layer_1/recurrent_kernel/Initializer/matrix_transpose/transpose"
  op: "Transpose"
  input: "RNN_net/stacked_rnn_cells/LSTM_Layer_1/recurrent_kernel/Initializer/mul"
  input: "RNN_net/stacked_rnn_cells/LSTM_Layer_1/recurrent_kernel/Initializer/matrix_transpose/transpose/perm"
  attr {
    key: "T"
    value {
      type: DT_FLOAT
    }
  }
  attr {
    key: "Tperm"
    value {
      type: DT_INT32
    }
  }
  attr {
    key: "_class"
    value {
      list {
        s: "loc:@RNN_net/stacked_rnn_cells/LSTM_Layer_1/recurrent_kernel"
      }
    }
  }
  attr {
    key: "_output_shapes"
    value {
      list {
        shape {
          dim {
            size: 32
          }
          dim {
            size: 128
          }
        }
      }
    }
  }
}
node {
  name: "RNN_net/stacked_rnn_cells/LSTM_Layer_1/recurrent_kernel/Initializer/Reshape/shape"
  op: "Const"
  attr {
    key: "_class"
    value {
      list {
        s: "loc:@RNN_net/stacked_rnn_cells/LSTM_Layer_1/recurrent_kernel"
      }
    }
  }
  attr {
    key: "_output_shapes"
    value {
      list {
        shape {
          dim {
            size: 2
          }
        }
      }
    }
  }
  attr {
    key: "dtype"
    value {
      type: DT_INT32
    }
  }
  attr {
    key: "value"
    value {
      tensor {
        dtype: DT_INT32
        tensor_shape {
          dim {
            size: 2
          }
        }
        tensor_content: " \000\000\000\200\000\000\000"
      }
    }
  }
}
node {
  name: "RNN_net/stacked_rnn_cells/LSTM_Layer_1/recurrent_kernel/Initializer/Reshape"
  op: "Reshape"
  input: "RNN_net/stacked_rnn_cells/LSTM_Layer_1/recurrent_kernel/Initializer/matrix_transpose/transpose"
  input: "RNN_net/stacked_rnn_cells/LSTM_Layer_1/recurrent_kernel/Initializer/Reshape/shape"
  attr {
    key: "T"
    value {
      type: DT_FLOAT
    }
  }
  attr {
    key: "Tshape"
    value {
      type: DT_INT32
    }
  }
  attr {
    key: "_class"
    value {
      list {
        s: "loc:@RNN_net/stacked_rnn_cells/LSTM_Layer_1/recurrent_kernel"
      }
    }
  }
  attr {
    key: "_output_shapes"
    value {
      list {
        shape {
          dim {
            size: 32
          }
          dim {
            size: 128
          }
        }
      }
    }
  }
}
node {
  name: "RNN_net/stacked_rnn_cells/LSTM_Layer_1/recurrent_kernel/Initializer/mul_1/x"
  op: "Const"
  attr {
    key: "_class"
    value {
      list {
        s: "loc:@RNN_net/stacked_rnn_cells/LSTM_Layer_1/recurrent_kernel"
      }
    }
  }
  attr {
    key: "_output_shapes"
    value {
      list {
        shape {
        }
      }
    }
  }
  attr {
    key: "dtype"
    value {
      type: DT_FLOAT
    }
  }
  attr {
    key: "value"
    value {
      tensor {
        dtype: DT_FLOAT
        tensor_shape {
        }
        float_val: 1.0
      }
    }
  }
}
node {
  name: "RNN_net/stacked_rnn_cells/LSTM_Layer_1/recurrent_kernel/Initializer/mul_1"
  op: "Mul"
  input: "RNN_net/stacked_rnn_cells/LSTM_Layer_1/recurrent_kernel/Initializer/mul_1/x"
  input: "RNN_net/stacked_rnn_cells/LSTM_Layer_1/recurrent_kernel/Initializer/Reshape"
  attr {
    key: "T"
    value {
      type: DT_FLOAT
    }
  }
  attr {
    key: "_class"
    value {
      list {
        s: "loc:@RNN_net/stacked_rnn_cells/LSTM_Layer_1/recurrent_kernel"
      }
    }
  }
  attr {
    key: "_output_shapes"
    value {
      list {
        shape {
          dim {
            size: 32
          }
          dim {
            size: 128
          }
        }
      }
    }
  }
}
node {
  name: "RNN_net/stacked_rnn_cells/LSTM_Layer_1/recurrent_kernel"
  op: "VarHandleOp"
  attr {
    key: "_class"
    value {
      list {
        s: "loc:@RNN_net/stacked_rnn_cells/LSTM_Layer_1/recurrent_kernel"
      }
    }
  }
  attr {
    key: "_output_shapes"
    value {
      list {
        shape {
        }
      }
    }
  }
  attr {
    key: "allowed_devices"
    value {
      list {
      }
    }
  }
  attr {
    key: "container"
    value {
      s: ""
    }
  }
  attr {
    key: "dtype"
    value {
      type: DT_FLOAT
    }
  }
  attr {
    key: "shape"
    value {
      shape {
        dim {
          size: 32
        }
        dim {
          size: 128
        }
      }
    }
  }
  attr {
    key: "shared_name"
    value {
      s: "RNN_net/stacked_rnn_cells/LSTM_Layer_1/recurrent_kernel"
    }
  }
}
node {
  name: "RNN_net/stacked_rnn_cells/LSTM_Layer_1/recurrent_kernel/IsInitialized/VarIsInitializedOp"
  op: "VarIsInitializedOp"
  input: "RNN_net/stacked_rnn_cells/LSTM_Layer_1/recurrent_kernel"
  attr {
    key: "_output_shapes"
    value {
      list {
        shape {
        }
      }
    }
  }
}
node {
  name: "RNN_net/stacked_rnn_cells/LSTM_Layer_1/recurrent_kernel/Assign"
  op: "AssignVariableOp"
  input: "RNN_net/stacked_rnn_cells/LSTM_Layer_1/recurrent_kernel"
  input: "RNN_net/stacked_rnn_cells/LSTM_Layer_1/recurrent_kernel/Initializer/mul_1"
  attr {
    key: "dtype"
    value {
      type: DT_FLOAT
    }
  }
  attr {
    key: "validate_shape"
    value {
      b: false
    }
  }
}
node {
  name: "RNN_net/stacked_rnn_cells/LSTM_Layer_1/recurrent_kernel/Read/ReadVariableOp"
  op: "ReadVariableOp"
  input: "RNN_net/stacked_rnn_cells/LSTM_Layer_1/recurrent_kernel"
  attr {
    key: "_output_shapes"
    value {
      list {
        shape {
          dim {
            size: 32
          }
          dim {
            size: 128
          }
        }
      }
    }
  }
  attr {
    key: "dtype"
    value {
      type: DT_FLOAT
    }
  }
}
node {
  name: "RNN_net/stacked_rnn_cells/LSTM_Layer_1/bias/Initializer/zeros"
  op: "Const"
  attr {
    key: "_class"
    value {
      list {
        s: "loc:@RNN_net/stacked_rnn_cells/LSTM_Layer_1/bias"
      }
    }
  }
  attr {
    key: "_output_shapes"
    value {
      list {
        shape {
          dim {
            size: 32
          }
        }
      }
    }
  }
  attr {
    key: "dtype"
    value {
      type: DT_FLOAT
    }
  }
  attr {
    key: "value"
    value {
      tensor {
        dtype: DT_FLOAT
        tensor_shape {
          dim {
            size: 32
          }
        }
        float_val: 0.0
      }
    }
  }
}
node {
  name: "RNN_net/stacked_rnn_cells/LSTM_Layer_1/bias/Initializer/ones"
  op: "Const"
  attr {
    key: "_class"
    value {
      list {
        s: "loc:@RNN_net/stacked_rnn_cells/LSTM_Layer_1/bias"
      }
    }
  }
  attr {
    key: "_output_shapes"
    value {
      list {
        shape {
          dim {
            size: 32
          }
        }
      }
    }
  }
  attr {
    key: "dtype"
    value {
      type: DT_FLOAT
    }
  }
  attr {
    key: "value"
    value {
      tensor {
        dtype: DT_FLOAT
        tensor_shape {
          dim {
            size: 32
          }
        }
        float_val: 1.0
      }
    }
  }
}
node {
  name: "RNN_net/stacked_rnn_cells/LSTM_Layer_1/bias/Initializer/zeros_1"
  op: "Const"
  attr {
    key: "_class"
    value {
      list {
        s: "loc:@RNN_net/stacked_rnn_cells/LSTM_Layer_1/bias"
      }
    }
  }
  attr {
    key: "_output_shapes"
    value {
      list {
        shape {
          dim {
            size: 64
          }
        }
      }
    }
  }
  attr {
    key: "dtype"
    value {
      type: DT_FLOAT
    }
  }
  attr {
    key: "value"
    value {
      tensor {
        dtype: DT_FLOAT
        tensor_shape {
          dim {
            size: 64
          }
        }
        float_val: 0.0
      }
    }
  }
}
node {
  name: "RNN_net/stacked_rnn_cells/LSTM_Layer_1/bias/Initializer/concat/axis"
  op: "Const"
  attr {
    key: "_class"
    value {
      list {
        s: "loc:@RNN_net/stacked_rnn_cells/LSTM_Layer_1/bias"
      }
    }
  }
  attr {
    key: "_output_shapes"
    value {
      list {
        shape {
        }
      }
    }
  }
  attr {
    key: "dtype"
    value {
      type: DT_INT32
    }
  }
  attr {
    key: "value"
    value {
      tensor {
        dtype: DT_INT32
        tensor_shape {
        }
        int_val: 0
      }
    }
  }
}
node {
  name: "RNN_net/stacked_rnn_cells/LSTM_Layer_1/bias/Initializer/concat"
  op: "ConcatV2"
  input: "RNN_net/stacked_rnn_cells/LSTM_Layer_1/bias/Initializer/zeros"
  input: "RNN_net/stacked_rnn_cells/LSTM_Layer_1/bias/Initializer/ones"
  input: "RNN_net/stacked_rnn_cells/LSTM_Layer_1/bias/Initializer/zeros_1"
  input: "RNN_net/stacked_rnn_cells/LSTM_Layer_1/bias/Initializer/concat/axis"
  attr {
    key: "N"
    value {
      i: 3
    }
  }
  attr {
    key: "T"
    value {
      type: DT_FLOAT
    }
  }
  attr {
    key: "Tidx"
    value {
      type: DT_INT32
    }
  }
  attr {
    key: "_class"
    value {
      list {
        s: "loc:@RNN_net/stacked_rnn_cells/LSTM_Layer_1/bias"
      }
    }
  }
  attr {
    key: "_output_shapes"
    value {
      list {
        shape {
          dim {
            size: 128
          }
        }
      }
    }
  }
}
node {
  name: "RNN_net/stacked_rnn_cells/LSTM_Layer_1/bias"
  op: "VarHandleOp"
  attr {
    key: "_class"
    value {
      list {
        s: "loc:@RNN_net/stacked_rnn_cells/LSTM_Layer_1/bias"
      }
    }
  }
  attr {
    key: "_output_shapes"
    value {
      list {
        shape {
        }
      }
    }
  }
  attr {
    key: "allowed_devices"
    value {
      list {
      }
    }
  }
  attr {
    key: "container"
    value {
      s: ""
    }
  }
  attr {
    key: "dtype"
    value {
      type: DT_FLOAT
    }
  }
  attr {
    key: "shape"
    value {
      shape {
        dim {
          size: 128
        }
      }
    }
  }
  attr {
    key: "shared_name"
    value {
      s: "RNN_net/stacked_rnn_cells/LSTM_Layer_1/bias"
    }
  }
}
node {
  name: "RNN_net/stacked_rnn_cells/LSTM_Layer_1/bias/IsInitialized/VarIsInitializedOp"
  op: "VarIsInitializedOp"
  input: "RNN_net/stacked_rnn_cells/LSTM_Layer_1/bias"
  attr {
    key: "_output_shapes"
    value {
      list {
        shape {
        }
      }
    }
  }
}
node {
  name: "RNN_net/stacked_rnn_cells/LSTM_Layer_1/bias/Assign"
  op: "AssignVariableOp"
  input: "RNN_net/stacked_rnn_cells/LSTM_Layer_1/bias"
  input: "RNN_net/stacked_rnn_cells/LSTM_Layer_1/bias/Initializer/concat"
  attr {
    key: "dtype"
    value {
      type: DT_FLOAT
    }
  }
  attr {
    key: "validate_shape"
    value {
      b: false
    }
  }
}
node {
  name: "RNN_net/stacked_rnn_cells/LSTM_Layer_1/bias/Read/ReadVariableOp"
  op: "ReadVariableOp"
  input: "RNN_net/stacked_rnn_cells/LSTM_Layer_1/bias"
  attr {
    key: "_output_shapes"
    value {
      list {
        shape {
          dim {
            size: 128
          }
        }
      }
    }
  }
  attr {
    key: "dtype"
    value {
      type: DT_FLOAT
    }
  }
}
node {
  name: "RNN_net/Shape"
  op: "Shape"
  input: "input_tensor"
  attr {
    key: "T"
    value {
      type: DT_FLOAT
    }
  }
  attr {
    key: "_output_shapes"
    value {
      list {
        shape {
          dim {
            size: 3
          }
        }
      }
    }
  }
  attr {
    key: "out_type"
    value {
      type: DT_INT32
    }
  }
}
node {
  name: "RNN_net/strided_slice/stack"
  op: "Const"
  attr {
    key: "_output_shapes"
    value {
      list {
        shape {
          dim {
            size: 1
          }
        }
      }
    }
  }
  attr {
    key: "dtype"
    value {
      type: DT_INT32
    }
  }
  attr {
    key: "value"
    value {
      tensor {
        dtype: DT_INT32
        tensor_shape {
          dim {
            size: 1
          }
        }
        int_val: 0
      }
    }
  }
}
node {
  name: "RNN_net/strided_slice/stack_1"
  op: "Const"
  attr {
    key: "_output_shapes"
    value {
      list {
        shape {
          dim {
            size: 1
          }
        }
      }
    }
  }
  attr {
    key: "dtype"
    value {
      type: DT_INT32
    }
  }
  attr {
    key: "value"
    value {
      tensor {
        dtype: DT_INT32
        tensor_shape {
          dim {
            size: 1
          }
        }
        int_val: 1
      }
    }
  }
}
node {
  name: "RNN_net/strided_slice/stack_2"
  op: "Const"
  attr {
    key: "_output_shapes"
    value {
      list {
        shape {
          dim {
            size: 1
          }
        }
      }
    }
  }
  attr {
    key: "dtype"
    value {
      type: DT_INT32
    }
  }
  attr {
    key: "value"
    value {
      tensor {
        dtype: DT_INT32
        tensor_shape {
          dim {
            size: 1
          }
        }
        int_val: 1
      }
    }
  }
}
node {
  name: "RNN_net/strided_slice"
  op: "StridedSlice"
  input: "RNN_net/Shape"
  input: "RNN_net/strided_slice/stack"
  input: "RNN_net/strided_slice/stack_1"
  input: "RNN_net/strided_slice/stack_2"
  attr {
    key: "Index"
    value {
      type: DT_INT32
    }
  }
  attr {
    key: "T"
    value {
      type: DT_INT32
    }
  }
  attr {
    key: "_output_shapes"
    value {
      list {
        shape {
        }
      }
    }
  }
  attr {
    key: "begin_mask"
    value {
      i: 0
    }
  }
  attr {
    key: "ellipsis_mask"
    value {
      i: 0
    }
  }
  attr {
    key: "end_mask"
    value {
      i: 0
    }
  }
  attr {
    key: "new_axis_mask"
    value {
      i: 0
    }
  }
  attr {
    key: "shrink_axis_mask"
    value {
      i: 1
    }
  }
}
node {
  name: "RNN_net/zeros/packed/1"
  op: "Const"
  attr {
    key: "_output_shapes"
    value {
      list {
        shape {
        }
      }
    }
  }
  attr {
    key: "dtype"
    value {
      type: DT_INT32
    }
  }
  attr {
    key: "value"
    value {
      tensor {
        dtype: DT_INT32
        tensor_shape {
        }
        int_val: 32
      }
    }
  }
}
node {
  name: "RNN_net/zeros/packed"
  op: "Pack"
  input: "RNN_net/strided_slice"
  input: "RNN_net/zeros/packed/1"
  attr {
    key: "N"
    value {
      i: 2
    }
  }
  attr {
    key: "T"
    value {
      type: DT_INT32
    }
  }
  attr {
    key: "_output_shapes"
    value {
      list {
        shape {
          dim {
            size: 2
          }
        }
      }
    }
  }
  attr {
    key: "axis"
    value {
      i: 0
    }
  }
}
node {
  name: "RNN_net/zeros/Const"
  op: "Const"
  attr {
    key: "_output_shapes"
    value {
      list {
        shape {
        }
      }
    }
  }
  attr {
    key: "dtype"
    value {
      type: DT_FLOAT
    }
  }
  attr {
    key: "value"
    value {
      tensor {
        dtype: DT_FLOAT
        tensor_shape {
        }
        float_val: 0.0
      }
    }
  }
}
node {
  name: "RNN_net/zeros"
  op: "Fill"
  input: "RNN_net/zeros/packed"
  input: "RNN_net/zeros/Const"
  attr {
    key: "T"
    value {
      type: DT_FLOAT
    }
  }
  attr {
    key: "_output_shapes"
    value {
      list {
        shape {
          dim {
            size: -1
          }
          dim {
            size: 32
          }
        }
      }
    }
  }
  attr {
    key: "index_type"
    value {
      type: DT_INT32
    }
  }
}
node {
  name: "RNN_net/zeros_1/packed/1"
  op: "Const"
  attr {
    key: "_output_shapes"
    value {
      list {
        shape {
        }
      }
    }
  }
  attr {
    key: "dtype"
    value {
      type: DT_INT32
    }
  }
  attr {
    key: "value"
    value {
      tensor {
        dtype: DT_INT32
        tensor_shape {
        }
        int_val: 32
      }
    }
  }
}
node {
  name: "RNN_net/zeros_1/packed"
  op: "Pack"
  input: "RNN_net/strided_slice"
  input: "RNN_net/zeros_1/packed/1"
  attr {
    key: "N"
    value {
      i: 2
    }
  }
  attr {
    key: "T"
    value {
      type: DT_INT32
    }
  }
  attr {
    key: "_output_shapes"
    value {
      list {
        shape {
          dim {
            size: 2
          }
        }
      }
    }
  }
  attr {
    key: "axis"
    value {
      i: 0
    }
  }
}
node {
  name: "RNN_net/zeros_1/Const"
  op: "Const"
  attr {
    key: "_output_shapes"
    value {
      list {
        shape {
        }
      }
    }
  }
  attr {
    key: "dtype"
    value {
      type: DT_FLOAT
    }
  }
  attr {
    key: "value"
    value {
      tensor {
        dtype: DT_FLOAT
        tensor_shape {
        }
        float_val: 0.0
      }
    }
  }
}
node {
  name: "RNN_net/zeros_1"
  op: "Fill"
  input: "RNN_net/zeros_1/packed"
  input: "RNN_net/zeros_1/Const"
  attr {
    key: "T"
    value {
      type: DT_FLOAT
    }
  }
  attr {
    key: "_output_shapes"
    value {
      list {
        shape {
          dim {
            size: -1
          }
          dim {
            size: 32
          }
        }
      }
    }
  }
  attr {
    key: "index_type"
    value {
      type: DT_INT32
    }
  }
}
node {
  name: "RNN_net/zeros_2/packed/1"
  op: "Const"
  attr {
    key: "_output_shapes"
    value {
      list {
        shape {
        }
      }
    }
  }
  attr {
    key: "dtype"
    value {
      type: DT_INT32
    }
  }
  attr {
    key: "value"
    value {
      tensor {
        dtype: DT_INT32
        tensor_shape {
        }
        int_val: 32
      }
    }
  }
}
node {
  name: "RNN_net/zeros_2/packed"
  op: "Pack"
  input: "RNN_net/strided_slice"
  input: "RNN_net/zeros_2/packed/1"
  attr {
    key: "N"
    value {
      i: 2
    }
  }
  attr {
    key: "T"
    value {
      type: DT_INT32
    }
  }
  attr {
    key: "_output_shapes"
    value {
      list {
        shape {
          dim {
            size: 2
          }
        }
      }
    }
  }
  attr {
    key: "axis"
    value {
      i: 0
    }
  }
}
node {
  name: "RNN_net/zeros_2/Const"
  op: "Const"
  attr {
    key: "_output_shapes"
    value {
      list {
        shape {
        }
      }
    }
  }
  attr {
    key: "dtype"
    value {
      type: DT_FLOAT
    }
  }
  attr {
    key: "value"
    value {
      tensor {
        dtype: DT_FLOAT
        tensor_shape {
        }
        float_val: 0.0
      }
    }
  }
}
node {
  name: "RNN_net/zeros_2"
  op: "Fill"
  input: "RNN_net/zeros_2/packed"
  input: "RNN_net/zeros_2/Const"
  attr {
    key: "T"
    value {
      type: DT_FLOAT
    }
  }
  attr {
    key: "_output_shapes"
    value {
      list {
        shape {
          dim {
            size: -1
          }
          dim {
            size: 32
          }
        }
      }
    }
  }
  attr {
    key: "index_type"
    value {
      type: DT_INT32
    }
  }
}
node {
  name: "RNN_net/zeros_3/packed/1"
  op: "Const"
  attr {
    key: "_output_shapes"
    value {
      list {
        shape {
        }
      }
    }
  }
  attr {
    key: "dtype"
    value {
      type: DT_INT32
    }
  }
  attr {
    key: "value"
    value {
      tensor {
        dtype: DT_INT32
        tensor_shape {
        }
        int_val: 32
      }
    }
  }
}
node {
  name: "RNN_net/zeros_3/packed"
  op: "Pack"
  input: "RNN_net/strided_slice"
  input: "RNN_net/zeros_3/packed/1"
  attr {
    key: "N"
    value {
      i: 2
    }
  }
  attr {
    key: "T"
    value {
      type: DT_INT32
    }
  }
  attr {
    key: "_output_shapes"
    value {
      list {
        shape {
          dim {
            size: 2
          }
        }
      }
    }
  }
  attr {
    key: "axis"
    value {
      i: 0
    }
  }
}
node {
  name: "RNN_net/zeros_3/Const"
  op: "Const"
  attr {
    key: "_output_shapes"
    value {
      list {
        shape {
        }
      }
    }
  }
  attr {
    key: "dtype"
    value {
      type: DT_FLOAT
    }
  }
  attr {
    key: "value"
    value {
      tensor {
        dtype: DT_FLOAT
        tensor_shape {
        }
        float_val: 0.0
      }
    }
  }
}
node {
  name: "RNN_net/zeros_3"
  op: "Fill"
  input: "RNN_net/zeros_3/packed"
  input: "RNN_net/zeros_3/Const"
  attr {
    key: "T"
    value {
      type: DT_FLOAT
    }
  }
  attr {
    key: "_output_shapes"
    value {
      list {
        shape {
          dim {
            size: -1
          }
          dim {
            size: 32
          }
        }
      }
    }
  }
  attr {
    key: "index_type"
    value {
      type: DT_INT32
    }
  }
}
node {
  name: "RNN_net/transpose/perm"
  op: "Const"
  attr {
    key: "_output_shapes"
    value {
      list {
        shape {
          dim {
            size: 3
          }
        }
      }
    }
  }
  attr {
    key: "dtype"
    value {
      type: DT_INT32
    }
  }
  attr {
    key: "value"
    value {
      tensor {
        dtype: DT_INT32
        tensor_shape {
          dim {
            size: 3
          }
        }
        tensor_content: "\001\000\000\000\000\000\000\000\002\000\000\000"
      }
    }
  }
}
node {
  name: "RNN_net/transpose"
  op: "Transpose"
  input: "input_tensor"
  input: "RNN_net/transpose/perm"
  attr {
    key: "T"
    value {
      type: DT_FLOAT
    }
  }
  attr {
    key: "Tperm"
    value {
      type: DT_INT32
    }
  }
  attr {
    key: "_output_shapes"
    value {
      list {
        shape {
          dim {
            size: 10
          }
          dim {
            size: -1
          }
          dim {
            size: 13
          }
        }
      }
    }
  }
}
node {
  name: "RNN_net/Shape_1"
  op: "Shape"
  input: "RNN_net/transpose"
  attr {
    key: "T"
    value {
      type: DT_FLOAT
    }
  }
  attr {
    key: "_output_shapes"
    value {
      list {
        shape {
          dim {
            size: 3
          }
        }
      }
    }
  }
  attr {
    key: "out_type"
    value {
      type: DT_INT32
    }
  }
}
node {
  name: "RNN_net/strided_slice_1/stack"
  op: "Const"
  attr {
    key: "_output_shapes"
    value {
      list {
        shape {
          dim {
            size: 1
          }
        }
      }
    }
  }
  attr {
    key: "dtype"
    value {
      type: DT_INT32
    }
  }
  attr {
    key: "value"
    value {
      tensor {
        dtype: DT_INT32
        tensor_shape {
          dim {
            size: 1
          }
        }
        int_val: 0
      }
    }
  }
}
node {
  name: "RNN_net/strided_slice_1/stack_1"
  op: "Const"
  attr {
    key: "_output_shapes"
    value {
      list {
        shape {
          dim {
            size: 1
          }
        }
      }
    }
  }
  attr {
    key: "dtype"
    value {
      type: DT_INT32
    }
  }
  attr {
    key: "value"
    value {
      tensor {
        dtype: DT_INT32
        tensor_shape {
          dim {
            size: 1
          }
        }
        int_val: 1
      }
    }
  }
}
node {
  name: "RNN_net/strided_slice_1/stack_2"
  op: "Const"
  attr {
    key: "_output_shapes"
    value {
      list {
        shape {
          dim {
            size: 1
          }
        }
      }
    }
  }
  attr {
    key: "dtype"
    value {
      type: DT_INT32
    }
  }
  attr {
    key: "value"
    value {
      tensor {
        dtype: DT_INT32
        tensor_shape {
          dim {
            size: 1
          }
        }
        int_val: 1
      }
    }
  }
}
node {
  name: "RNN_net/strided_slice_1"
  op: "StridedSlice"
  input: "RNN_net/Shape_1"
  input: "RNN_net/strided_slice_1/stack"
  input: "RNN_net/strided_slice_1/stack_1"
  input: "RNN_net/strided_slice_1/stack_2"
  attr {
    key: "Index"
    value {
      type: DT_INT32
    }
  }
  attr {
    key: "T"
    value {
      type: DT_INT32
    }
  }
  attr {
    key: "_output_shapes"
    value {
      list {
        shape {
        }
      }
    }
  }
  attr {
    key: "begin_mask"
    value {
      i: 0
    }
  }
  attr {
    key: "ellipsis_mask"
    value {
      i: 0
    }
  }
  attr {
    key: "end_mask"
    value {
      i: 0
    }
  }
  attr {
    key: "new_axis_mask"
    value {
      i: 0
    }
  }
  attr {
    key: "shrink_axis_mask"
    value {
      i: 1
    }
  }
}
node {
  name: "RNN_net/TensorArrayV2/element_shape"
  op: "Const"
  attr {
    key: "_output_shapes"
    value {
      list {
        shape {
        }
      }
    }
  }
  attr {
    key: "dtype"
    value {
      type: DT_INT32
    }
  }
  attr {
    key: "value"
    value {
      tensor {
        dtype: DT_INT32
        tensor_shape {
        }
        int_val: -1
      }
    }
  }
}
node {
  name: "RNN_net/TensorArrayV2"
  op: "TensorListReserve"
  input: "RNN_net/TensorArrayV2/element_shape"
  input: "RNN_net/strided_slice_1"
  attr {
    key: "_output_shapes"
    value {
      list {
        shape {
        }
      }
    }
  }
  attr {
    key: "element_dtype"
    value {
      type: DT_FLOAT
    }
  }
  attr {
    key: "shape_type"
    value {
      type: DT_INT32
    }
  }
  experimental_type {
    type_id: TFT_PRODUCT
    args {
      type_id: TFT_ARRAY
      args {
        type_id: TFT_TENSOR
        args {
          type_id: TFT_FLOAT
        }
      }
    }
  }
}
node {
  name: "RNN_net/TensorArrayUnstack/TensorListFromTensor/element_shape"
  op: "Const"
  attr {
    key: "_output_shapes"
    value {
      list {
        shape {
          dim {
            size: 2
          }
        }
      }
    }
  }
  attr {
    key: "dtype"
    value {
      type: DT_INT32
    }
  }
  attr {
    key: "value"
    value {
      tensor {
        dtype: DT_INT32
        tensor_shape {
          dim {
            size: 2
          }
        }
        tensor_content: "\377\377\377\377\r\000\000\000"
      }
    }
  }
}
node {
  name: "RNN_net/TensorArrayUnstack/TensorListFromTensor"
  op: "TensorListFromTensor"
  input: "RNN_net/transpose"
  input: "RNN_net/TensorArrayUnstack/TensorListFromTensor/element_shape"
  attr {
    key: "_output_shapes"
    value {
      list {
        shape {
        }
      }
    }
  }
  attr {
    key: "element_dtype"
    value {
      type: DT_FLOAT
    }
  }
  attr {
    key: "shape_type"
    value {
      type: DT_INT32
    }
  }
  experimental_type {
    type_id: TFT_PRODUCT
    args {
      type_id: TFT_ARRAY
      args {
        type_id: TFT_TENSOR
        args {
          type_id: TFT_FLOAT
        }
      }
    }
  }
}
node {
  name: "RNN_net/strided_slice_2/stack"
  op: "Const"
  attr {
    key: "_output_shapes"
    value {
      list {
        shape {
          dim {
            size: 1
          }
        }
      }
    }
  }
  attr {
    key: "dtype"
    value {
      type: DT_INT32
    }
  }
  attr {
    key: "value"
    value {
      tensor {
        dtype: DT_INT32
        tensor_shape {
          dim {
            size: 1
          }
        }
        int_val: 0
      }
    }
  }
}
node {
  name: "RNN_net/strided_slice_2/stack_1"
  op: "Const"
  attr {
    key: "_output_shapes"
    value {
      list {
        shape {
          dim {
            size: 1
          }
        }
      }
    }
  }
  attr {
    key: "dtype"
    value {
      type: DT_INT32
    }
  }
  attr {
    key: "value"
    value {
      tensor {
        dtype: DT_INT32
        tensor_shape {
          dim {
            size: 1
          }
        }
        int_val: 1
      }
    }
  }
}
node {
  name: "RNN_net/strided_slice_2/stack_2"
  op: "Const"
  attr {
    key: "_output_shapes"
    value {
      list {
        shape {
          dim {
            size: 1
          }
        }
      }
    }
  }
  attr {
    key: "dtype"
    value {
      type: DT_INT32
    }
  }
  attr {
    key: "value"
    value {
      tensor {
        dtype: DT_INT32
        tensor_shape {
          dim {
            size: 1
          }
        }
        int_val: 1
      }
    }
  }
}
node {
  name: "RNN_net/strided_slice_2"
  op: "StridedSlice"
  input: "RNN_net/transpose"
  input: "RNN_net/strided_slice_2/stack"
  input: "RNN_net/strided_slice_2/stack_1"
  input: "RNN_net/strided_slice_2/stack_2"
  attr {
    key: "Index"
    value {
      type: DT_INT32
    }
  }
  attr {
    key: "T"
    value {
      type: DT_FLOAT
    }
  }
  attr {
    key: "_output_shapes"
    value {
      list {
        shape {
          dim {
            size: -1
          }
          dim {
            size: 13
          }
        }
      }
    }
  }
  attr {
    key: "begin_mask"
    value {
      i: 0
    }
  }
  attr {
    key: "ellipsis_mask"
    value {
      i: 0
    }
  }
  attr {
    key: "end_mask"
    value {
      i: 0
    }
  }
  attr {
    key: "new_axis_mask"
    value {
      i: 0
    }
  }
  attr {
    key: "shrink_axis_mask"
    value {
      i: 1
    }
  }
}
node {
  name: "RNN_net/stacked_rnn_cells_1/LSTM_Layer_0/split/split_dim"
  op: "Const"
  attr {
    key: "_output_shapes"
    value {
      list {
        shape {
        }
      }
    }
  }
  attr {
    key: "dtype"
    value {
      type: DT_INT32
    }
  }
  attr {
    key: "value"
    value {
      tensor {
        dtype: DT_INT32
        tensor_shape {
        }
        int_val: 1
      }
    }
  }
}
node {
  name: "RNN_net/stacked_rnn_cells_1/LSTM_Layer_0/split/ReadVariableOp"
  op: "ReadVariableOp"
  input: "RNN_net/stacked_rnn_cells/LSTM_Layer_0/kernel"
  attr {
    key: "_output_shapes"
    value {
      list {
        shape {
          dim {
            size: 13
          }
          dim {
            size: 128
          }
        }
      }
    }
  }
  attr {
    key: "dtype"
    value {
      type: DT_FLOAT
    }
  }
}
node {
  name: "RNN_net/stacked_rnn_cells_1/LSTM_Layer_0/split"
  op: "Split"
  input: "RNN_net/stacked_rnn_cells_1/LSTM_Layer_0/split/split_dim"
  input: "RNN_net/stacked_rnn_cells_1/LSTM_Layer_0/split/ReadVariableOp"
  attr {
    key: "T"
    value {
      type: DT_FLOAT
    }
  }
  attr {
    key: "_output_shapes"
    value {
      list {
        shape {
          dim {
            size: 13
          }
          dim {
            size: 32
          }
        }
        shape {
          dim {
            size: 13
          }
          dim {
            size: 32
          }
        }
        shape {
          dim {
            size: 13
          }
          dim {
            size: 32
          }
        }
        shape {
          dim {
            size: 13
          }
          dim {
            size: 32
          }
        }
      }
    }
  }
  attr {
    key: "num_split"
    value {
      i: 4
    }
  }
}
node {
  name: "RNN_net/stacked_rnn_cells_1/LSTM_Layer_0/MatMul"
  op: "MatMul"
  input: "RNN_net/strided_slice_2"
  input: "RNN_net/stacked_rnn_cells_1/LSTM_Layer_0/split"
  attr {
    key: "T"
    value {
      type: DT_FLOAT
    }
  }
  attr {
    key: "_output_shapes"
    value {
      list {
        shape {
          dim {
            size: -1
          }
          dim {
            size: 32
          }
        }
      }
    }
  }
  attr {
    key: "transpose_a"
    value {
      b: false
    }
  }
  attr {
    key: "transpose_b"
    value {
      b: false
    }
  }
}
node {
  name: "RNN_net/stacked_rnn_cells_1/LSTM_Layer_0/MatMul_1"
  op: "MatMul"
  input: "RNN_net/strided_slice_2"
  input: "RNN_net/stacked_rnn_cells_1/LSTM_Layer_0/split:1"
  attr {
    key: "T"
    value {
      type: DT_FLOAT
    }
  }
  attr {
    key: "_output_shapes"
    value {
      list {
        shape {
          dim {
            size: -1
          }
          dim {
            size: 32
          }
        }
      }
    }
  }
  attr {
    key: "transpose_a"
    value {
      b: false
    }
  }
  attr {
    key: "transpose_b"
    value {
      b: false
    }
  }
}
node {
  name: "RNN_net/stacked_rnn_cells_1/LSTM_Layer_0/MatMul_2"
  op: "MatMul"
  input: "RNN_net/strided_slice_2"
  input: "RNN_net/stacked_rnn_cells_1/LSTM_Layer_0/split:2"
  attr {
    key: "T"
    value {
      type: DT_FLOAT
    }
  }
  attr {
    key: "_output_shapes"
    value {
      list {
        shape {
          dim {
            size: -1
          }
          dim {
            size: 32
          }
        }
      }
    }
  }
  attr {
    key: "transpose_a"
    value {
      b: false
    }
  }
  attr {
    key: "transpose_b"
    value {
      b: false
    }
  }
}
node {
  name: "RNN_net/stacked_rnn_cells_1/LSTM_Layer_0/MatMul_3"
  op: "MatMul"
  input: "RNN_net/strided_slice_2"
  input: "RNN_net/stacked_rnn_cells_1/LSTM_Layer_0/split:3"
  attr {
    key: "T"
    value {
      type: DT_FLOAT
    }
  }
  attr {
    key: "_output_shapes"
    value {
      list {
        shape {
          dim {
            size: -1
          }
          dim {
            size: 32
          }
        }
      }
    }
  }
  attr {
    key: "transpose_a"
    value {
      b: false
    }
  }
  attr {
    key: "transpose_b"
    value {
      b: false
    }
  }
}
node {
  name: "RNN_net/stacked_rnn_cells_1/LSTM_Layer_0/split_1/split_dim"
  op: "Const"
  attr {
    key: "_output_shapes"
    value {
      list {
        shape {
        }
      }
    }
  }
  attr {
    key: "dtype"
    value {
      type: DT_INT32
    }
  }
  attr {
    key: "value"
    value {
      tensor {
        dtype: DT_INT32
        tensor_shape {
        }
        int_val: 0
      }
    }
  }
}
node {
  name: "RNN_net/stacked_rnn_cells_1/LSTM_Layer_0/split_1/ReadVariableOp"
  op: "ReadVariableOp"
  input: "RNN_net/stacked_rnn_cells/LSTM_Layer_0/bias"
  attr {
    key: "_output_shapes"
    value {
      list {
        shape {
          dim {
            size: 128
          }
        }
      }
    }
  }
  attr {
    key: "dtype"
    value {
      type: DT_FLOAT
    }
  }
}
node {
  name: "RNN_net/stacked_rnn_cells_1/LSTM_Layer_0/split_1"
  op: "Split"
  input: "RNN_net/stacked_rnn_cells_1/LSTM_Layer_0/split_1/split_dim"
  input: "RNN_net/stacked_rnn_cells_1/LSTM_Layer_0/split_1/ReadVariableOp"
  attr {
    key: "T"
    value {
      type: DT_FLOAT
    }
  }
  attr {
    key: "_output_shapes"
    value {
      list {
        shape {
          dim {
            size: 32
          }
        }
        shape {
          dim {
            size: 32
          }
        }
        shape {
          dim {
            size: 32
          }
        }
        shape {
          dim {
            size: 32
          }
        }
      }
    }
  }
  attr {
    key: "num_split"
    value {
      i: 4
    }
  }
}
node {
  name: "RNN_net/stacked_rnn_cells_1/LSTM_Layer_0/BiasAdd"
  op: "BiasAdd"
  input: "RNN_net/stacked_rnn_cells_1/LSTM_Layer_0/MatMul"
  input: "RNN_net/stacked_rnn_cells_1/LSTM_Layer_0/split_1"
  attr {
    key: "T"
    value {
      type: DT_FLOAT
    }
  }
  attr {
    key: "_output_shapes"
    value {
      list {
        shape {
          dim {
            size: -1
          }
          dim {
            size: 32
          }
        }
      }
    }
  }
  attr {
    key: "data_format"
    value {
      s: "NHWC"
    }
  }
}
node {
  name: "RNN_net/stacked_rnn_cells_1/LSTM_Layer_0/BiasAdd_1"
  op: "BiasAdd"
  input: "RNN_net/stacked_rnn_cells_1/LSTM_Layer_0/MatMul_1"
  input: "RNN_net/stacked_rnn_cells_1/LSTM_Layer_0/split_1:1"
  attr {
    key: "T"
    value {
      type: DT_FLOAT
    }
  }
  attr {
    key: "_output_shapes"
    value {
      list {
        shape {
          dim {
            size: -1
          }
          dim {
            size: 32
          }
        }
      }
    }
  }
  attr {
    key: "data_format"
    value {
      s: "NHWC"
    }
  }
}
node {
  name: "RNN_net/stacked_rnn_cells_1/LSTM_Layer_0/BiasAdd_2"
  op: "BiasAdd"
  input: "RNN_net/stacked_rnn_cells_1/LSTM_Layer_0/MatMul_2"
  input: "RNN_net/stacked_rnn_cells_1/LSTM_Layer_0/split_1:2"
  attr {
    key: "T"
    value {
      type: DT_FLOAT
    }
  }
  attr {
    key: "_output_shapes"
    value {
      list {
        shape {
          dim {
            size: -1
          }
          dim {
            size: 32
          }
        }
      }
    }
  }
  attr {
    key: "data_format"
    value {
      s: "NHWC"
    }
  }
}
node {
  name: "RNN_net/stacked_rnn_cells_1/LSTM_Layer_0/BiasAdd_3"
  op: "BiasAdd"
  input: "RNN_net/stacked_rnn_cells_1/LSTM_Layer_0/MatMul_3"
  input: "RNN_net/stacked_rnn_cells_1/LSTM_Layer_0/split_1:3"
  attr {
    key: "T"
    value {
      type: DT_FLOAT
    }
  }
  attr {
    key: "_output_shapes"
    value {
      list {
        shape {
          dim {
            size: -1
          }
          dim {
            size: 32
          }
        }
      }
    }
  }
  attr {
    key: "data_format"
    value {
      s: "NHWC"
    }
  }
}
node {
  name: "RNN_net/stacked_rnn_cells_1/LSTM_Layer_0/ReadVariableOp"
  op: "ReadVariableOp"
  input: "RNN_net/stacked_rnn_cells/LSTM_Layer_0/recurrent_kernel"
  attr {
    key: "_output_shapes"
    value {
      list {
        shape {
          dim {
            size: 32
          }
          dim {
            size: 128
          }
        }
      }
    }
  }
  attr {
    key: "dtype"
    value {
      type: DT_FLOAT
    }
  }
}
node {
  name: "RNN_net/stacked_rnn_cells_1/LSTM_Layer_0/strided_slice/stack"
  op: "Const"
  attr {
    key: "_output_shapes"
    value {
      list {
        shape {
          dim {
            size: 2
          }
        }
      }
    }
  }
  attr {
    key: "dtype"
    value {
      type: DT_INT32
    }
  }
  attr {
    key: "value"
    value {
      tensor {
        dtype: DT_INT32
        tensor_shape {
          dim {
            size: 2
          }
        }
        tensor_content: "\000\000\000\000\000\000\000\000"
      }
    }
  }
}
node {
  name: "RNN_net/stacked_rnn_cells_1/LSTM_Layer_0/strided_slice/stack_1"
  op: "Const"
  attr {
    key: "_output_shapes"
    value {
      list {
        shape {
          dim {
            size: 2
          }
        }
      }
    }
  }
  attr {
    key: "dtype"
    value {
      type: DT_INT32
    }
  }
  attr {
    key: "value"
    value {
      tensor {
        dtype: DT_INT32
        tensor_shape {
          dim {
            size: 2
          }
        }
        tensor_content: "\000\000\000\000 \000\000\000"
      }
    }
  }
}
node {
  name: "RNN_net/stacked_rnn_cells_1/LSTM_Layer_0/strided_slice/stack_2"
  op: "Const"
  attr {
    key: "_output_shapes"
    value {
      list {
        shape {
          dim {
            size: 2
          }
        }
      }
    }
  }
  attr {
    key: "dtype"
    value {
      type: DT_INT32
    }
  }
  attr {
    key: "value"
    value {
      tensor {
        dtype: DT_INT32
        tensor_shape {
          dim {
            size: 2
          }
        }
        tensor_content: "\001\000\000\000\001\000\000\000"
      }
    }
  }
}
node {
  name: "RNN_net/stacked_rnn_cells_1/LSTM_Layer_0/strided_slice"
  op: "StridedSlice"
  input: "RNN_net/stacked_rnn_cells_1/LSTM_Layer_0/ReadVariableOp"
  input: "RNN_net/stacked_rnn_cells_1/LSTM_Layer_0/strided_slice/stack"
  input: "RNN_net/stacked_rnn_cells_1/LSTM_Layer_0/strided_slice/stack_1"
  input: "RNN_net/stacked_rnn_cells_1/LSTM_Layer_0/strided_slice/stack_2"
  attr {
    key: "Index"
    value {
      type: DT_INT32
    }
  }
  attr {
    key: "T"
    value {
      type: DT_FLOAT
    }
  }
  attr {
    key: "_output_shapes"
    value {
      list {
        shape {
          dim {
            size: 32
          }
          dim {
            size: 32
          }
        }
      }
    }
  }
  attr {
    key: "begin_mask"
    value {
      i: 3
    }
  }
  attr {
    key: "ellipsis_mask"
    value {
      i: 0
    }
  }
  attr {
    key: "end_mask"
    value {
      i: 1
    }
  }
  attr {
    key: "new_axis_mask"
    value {
      i: 0
    }
  }
  attr {
    key: "shrink_axis_mask"
    value {
      i: 0
    }
  }
}
node {
  name: "RNN_net/stacked_rnn_cells_1/LSTM_Layer_0/MatMul_4"
  op: "MatMul"
  input: "RNN_net/zeros"
  input: "RNN_net/stacked_rnn_cells_1/LSTM_Layer_0/strided_slice"
  attr {
    key: "T"
    value {
      type: DT_FLOAT
    }
  }
  attr {
    key: "_output_shapes"
    value {
      list {
        shape {
          dim {
            size: -1
          }
          dim {
            size: 32
          }
        }
      }
    }
  }
  attr {
    key: "transpose_a"
    value {
      b: false
    }
  }
  attr {
    key: "transpose_b"
    value {
      b: false
    }
  }
}
node {
  name: "RNN_net/stacked_rnn_cells_1/LSTM_Layer_0/add"
  op: "AddV2"
  input: "RNN_net/stacked_rnn_cells_1/LSTM_Layer_0/BiasAdd"
  input: "RNN_net/stacked_rnn_cells_1/LSTM_Layer_0/MatMul_4"
  attr {
    key: "T"
    value {
      type: DT_FLOAT
    }
  }
  attr {
    key: "_output_shapes"
    value {
      list {
        shape {
          dim {
            size: -1
          }
          dim {
            size: 32
          }
        }
      }
    }
  }
}
node {
  name: "RNN_net/stacked_rnn_cells_1/LSTM_Layer_0/Const"
  op: "Const"
  attr {
    key: "_output_shapes"
    value {
      list {
        shape {
        }
      }
    }
  }
  attr {
    key: "dtype"
    value {
      type: DT_FLOAT
    }
  }
  attr {
    key: "value"
    value {
      tensor {
        dtype: DT_FLOAT
        tensor_shape {
        }
        float_val: 0.20000000298023224
      }
    }
  }
}
node {
  name: "RNN_net/stacked_rnn_cells_1/LSTM_Layer_0/Const_1"
  op: "Const"
  attr {
    key: "_output_shapes"
    value {
      list {
        shape {
        }
      }
    }
  }
  attr {
    key: "dtype"
    value {
      type: DT_FLOAT
    }
  }
  attr {
    key: "value"
    value {
      tensor {
        dtype: DT_FLOAT
        tensor_shape {
        }
        float_val: 0.5
      }
    }
  }
}
node {
  name: "RNN_net/stacked_rnn_cells_1/LSTM_Layer_0/Mul"
  op: "Mul"
  input: "RNN_net/stacked_rnn_cells_1/LSTM_Layer_0/add"
  input: "RNN_net/stacked_rnn_cells_1/LSTM_Layer_0/Const"
  attr {
    key: "T"
    value {
      type: DT_FLOAT
    }
  }
  attr {
    key: "_output_shapes"
    value {
      list {
        shape {
          dim {
            size: -1
          }
          dim {
            size: 32
          }
        }
      }
    }
  }
}
node {
  name: "RNN_net/stacked_rnn_cells_1/LSTM_Layer_0/Add_1"
  op: "AddV2"
  input: "RNN_net/stacked_rnn_cells_1/LSTM_Layer_0/Mul"
  input: "RNN_net/stacked_rnn_cells_1/LSTM_Layer_0/Const_1"
  attr {
    key: "T"
    value {
      type: DT_FLOAT
    }
  }
  attr {
    key: "_output_shapes"
    value {
      list {
        shape {
          dim {
            size: -1
          }
          dim {
            size: 32
          }
        }
      }
    }
  }
}
node {
  name: "RNN_net/stacked_rnn_cells_1/LSTM_Layer_0/clip_by_value/Minimum/y"
  op: "Const"
  attr {
    key: "_output_shapes"
    value {
      list {
        shape {
        }
      }
    }
  }
  attr {
    key: "dtype"
    value {
      type: DT_FLOAT
    }
  }
  attr {
    key: "value"
    value {
      tensor {
        dtype: DT_FLOAT
        tensor_shape {
        }
        float_val: 1.0
      }
    }
  }
}
node {
  name: "RNN_net/stacked_rnn_cells_1/LSTM_Layer_0/clip_by_value/Minimum"
  op: "Minimum"
  input: "RNN_net/stacked_rnn_cells_1/LSTM_Layer_0/Add_1"
  input: "RNN_net/stacked_rnn_cells_1/LSTM_Layer_0/clip_by_value/Minimum/y"
  attr {
    key: "T"
    value {
      type: DT_FLOAT
    }
  }
  attr {
    key: "_output_shapes"
    value {
      list {
        shape {
          dim {
            size: -1
          }
          dim {
            size: 32
          }
        }
      }
    }
  }
}
node {
  name: "RNN_net/stacked_rnn_cells_1/LSTM_Layer_0/clip_by_value/y"
  op: "Const"
  attr {
    key: "_output_shapes"
    value {
      list {
        shape {
        }
      }
    }
  }
  attr {
    key: "dtype"
    value {
      type: DT_FLOAT
    }
  }
  attr {
    key: "value"
    value {
      tensor {
        dtype: DT_FLOAT
        tensor_shape {
        }
        float_val: 0.0
      }
    }
  }
}
node {
  name: "RNN_net/stacked_rnn_cells_1/LSTM_Layer_0/clip_by_value"
  op: "Maximum"
  input: "RNN_net/stacked_rnn_cells_1/LSTM_Layer_0/clip_by_value/Minimum"
  input: "RNN_net/stacked_rnn_cells_1/LSTM_Layer_0/clip_by_value/y"
  attr {
    key: "T"
    value {
      type: DT_FLOAT
    }
  }
  attr {
    key: "_output_shapes"
    value {
      list {
        shape {
          dim {
            size: -1
          }
          dim {
            size: 32
          }
        }
      }
    }
  }
}
node {
  name: "RNN_net/stacked_rnn_cells_1/LSTM_Layer_0/ReadVariableOp_1"
  op: "ReadVariableOp"
  input: "RNN_net/stacked_rnn_cells/LSTM_Layer_0/recurrent_kernel"
  attr {
    key: "_output_shapes"
    value {
      list {
        shape {
          dim {
            size: 32
          }
          dim {
            size: 128
          }
        }
      }
    }
  }
  attr {
    key: "dtype"
    value {
      type: DT_FLOAT
    }
  }
}
node {
  name: "RNN_net/stacked_rnn_cells_1/LSTM_Layer_0/strided_slice_1/stack"
  op: "Const"
  attr {
    key: "_output_shapes"
    value {
      list {
        shape {
          dim {
            size: 2
          }
        }
      }
    }
  }
  attr {
    key: "dtype"
    value {
      type: DT_INT32
    }
  }
  attr {
    key: "value"
    value {
      tensor {
        dtype: DT_INT32
        tensor_shape {
          dim {
            size: 2
          }
        }
        tensor_content: "\000\000\000\000 \000\000\000"
      }
    }
  }
}
node {
  name: "RNN_net/stacked_rnn_cells_1/LSTM_Layer_0/strided_slice_1/stack_1"
  op: "Const"
  attr {
    key: "_output_shapes"
    value {
      list {
        shape {
          dim {
            size: 2
          }
        }
      }
    }
  }
  attr {
    key: "dtype"
    value {
      type: DT_INT32
    }
  }
  attr {
    key: "value"
    value {
      tensor {
        dtype: DT_INT32
        tensor_shape {
          dim {
            size: 2
          }
        }
        tensor_content: "\000\000\000\000@\000\000\000"
      }
    }
  }
}
node {
  name: "RNN_net/stacked_rnn_cells_1/LSTM_Layer_0/strided_slice_1/stack_2"
  op: "Const"
  attr {
    key: "_output_shapes"
    value {
      list {
        shape {
          dim {
            size: 2
          }
        }
      }
    }
  }
  attr {
    key: "dtype"
    value {
      type: DT_INT32
    }
  }
  attr {
    key: "value"
    value {
      tensor {
        dtype: DT_INT32
        tensor_shape {
          dim {
            size: 2
          }
        }
        tensor_content: "\001\000\000\000\001\000\000\000"
      }
    }
  }
}
node {
  name: "RNN_net/stacked_rnn_cells_1/LSTM_Layer_0/strided_slice_1"
  op: "StridedSlice"
  input: "RNN_net/stacked_rnn_cells_1/LSTM_Layer_0/ReadVariableOp_1"
  input: "RNN_net/stacked_rnn_cells_1/LSTM_Layer_0/strided_slice_1/stack"
  input: "RNN_net/stacked_rnn_cells_1/LSTM_Layer_0/strided_slice_1/stack_1"
  input: "RNN_net/stacked_rnn_cells_1/LSTM_Layer_0/strided_slice_1/stack_2"
  attr {
    key: "Index"
    value {
      type: DT_INT32
    }
  }
  attr {
    key: "T"
    value {
      type: DT_FLOAT
    }
  }
  attr {
    key: "_output_shapes"
    value {
      list {
        shape {
          dim {
            size: 32
          }
          dim {
            size: 32
          }
        }
      }
    }
  }
  attr {
    key: "begin_mask"
    value {
      i: 1
    }
  }
  attr {
    key: "ellipsis_mask"
    value {
      i: 0
    }
  }
  attr {
    key: "end_mask"
    value {
      i: 1
    }
  }
  attr {
    key: "new_axis_mask"
    value {
      i: 0
    }
  }
  attr {
    key: "shrink_axis_mask"
    value {
      i: 0
    }
  }
}
node {
  name: "RNN_net/stacked_rnn_cells_1/LSTM_Layer_0/MatMul_5"
  op: "MatMul"
  input: "RNN_net/zeros"
  input: "RNN_net/stacked_rnn_cells_1/LSTM_Layer_0/strided_slice_1"
  attr {
    key: "T"
    value {
      type: DT_FLOAT
    }
  }
  attr {
    key: "_output_shapes"
    value {
      list {
        shape {
          dim {
            size: -1
          }
          dim {
            size: 32
          }
        }
      }
    }
  }
  attr {
    key: "transpose_a"
    value {
      b: false
    }
  }
  attr {
    key: "transpose_b"
    value {
      b: false
    }
  }
}
node {
  name: "RNN_net/stacked_rnn_cells_1/LSTM_Layer_0/add_2"
  op: "AddV2"
  input: "RNN_net/stacked_rnn_cells_1/LSTM_Layer_0/BiasAdd_1"
  input: "RNN_net/stacked_rnn_cells_1/LSTM_Layer_0/MatMul_5"
  attr {
    key: "T"
    value {
      type: DT_FLOAT
    }
  }
  attr {
    key: "_output_shapes"
    value {
      list {
        shape {
          dim {
            size: -1
          }
          dim {
            size: 32
          }
        }
      }
    }
  }
}
node {
  name: "RNN_net/stacked_rnn_cells_1/LSTM_Layer_0/Const_2"
  op: "Const"
  attr {
    key: "_output_shapes"
    value {
      list {
        shape {
        }
      }
    }
  }
  attr {
    key: "dtype"
    value {
      type: DT_FLOAT
    }
  }
  attr {
    key: "value"
    value {
      tensor {
        dtype: DT_FLOAT
        tensor_shape {
        }
        float_val: 0.20000000298023224
      }
    }
  }
}
node {
  name: "RNN_net/stacked_rnn_cells_1/LSTM_Layer_0/Const_3"
  op: "Const"
  attr {
    key: "_output_shapes"
    value {
      list {
        shape {
        }
      }
    }
  }
  attr {
    key: "dtype"
    value {
      type: DT_FLOAT
    }
  }
  attr {
    key: "value"
    value {
      tensor {
        dtype: DT_FLOAT
        tensor_shape {
        }
        float_val: 0.5
      }
    }
  }
}
node {
  name: "RNN_net/stacked_rnn_cells_1/LSTM_Layer_0/Mul_1"
  op: "Mul"
  input: "RNN_net/stacked_rnn_cells_1/LSTM_Layer_0/add_2"
  input: "RNN_net/stacked_rnn_cells_1/LSTM_Layer_0/Const_2"
  attr {
    key: "T"
    value {
      type: DT_FLOAT
    }
  }
  attr {
    key: "_output_shapes"
    value {
      list {
        shape {
          dim {
            size: -1
          }
          dim {
            size: 32
          }
        }
      }
    }
  }
}
node {
  name: "RNN_net/stacked_rnn_cells_1/LSTM_Layer_0/Add_3"
  op: "AddV2"
  input: "RNN_net/stacked_rnn_cells_1/LSTM_Layer_0/Mul_1"
  input: "RNN_net/stacked_rnn_cells_1/LSTM_Layer_0/Const_3"
  attr {
    key: "T"
    value {
      type: DT_FLOAT
    }
  }
  attr {
    key: "_output_shapes"
    value {
      list {
        shape {
          dim {
            size: -1
          }
          dim {
            size: 32
          }
        }
      }
    }
  }
}
node {
  name: "RNN_net/stacked_rnn_cells_1/LSTM_Layer_0/clip_by_value_1/Minimum/y"
  op: "Const"
  attr {
    key: "_output_shapes"
    value {
      list {
        shape {
        }
      }
    }
  }
  attr {
    key: "dtype"
    value {
      type: DT_FLOAT
    }
  }
  attr {
    key: "value"
    value {
      tensor {
        dtype: DT_FLOAT
        tensor_shape {
        }
        float_val: 1.0
      }
    }
  }
}
node {
  name: "RNN_net/stacked_rnn_cells_1/LSTM_Layer_0/clip_by_value_1/Minimum"
  op: "Minimum"
  input: "RNN_net/stacked_rnn_cells_1/LSTM_Layer_0/Add_3"
  input: "RNN_net/stacked_rnn_cells_1/LSTM_Layer_0/clip_by_value_1/Minimum/y"
  attr {
    key: "T"
    value {
      type: DT_FLOAT
    }
  }
  attr {
    key: "_output_shapes"
    value {
      list {
        shape {
          dim {
            size: -1
          }
          dim {
            size: 32
          }
        }
      }
    }
  }
}
node {
  name: "RNN_net/stacked_rnn_cells_1/LSTM_Layer_0/clip_by_value_1/y"
  op: "Const"
  attr {
    key: "_output_shapes"
    value {
      list {
        shape {
        }
      }
    }
  }
  attr {
    key: "dtype"
    value {
      type: DT_FLOAT
    }
  }
  attr {
    key: "value"
    value {
      tensor {
        dtype: DT_FLOAT
        tensor_shape {
        }
        float_val: 0.0
      }
    }
  }
}
node {
  name: "RNN_net/stacked_rnn_cells_1/LSTM_Layer_0/clip_by_value_1"
  op: "Maximum"
  input: "RNN_net/stacked_rnn_cells_1/LSTM_Layer_0/clip_by_value_1/Minimum"
  input: "RNN_net/stacked_rnn_cells_1/LSTM_Layer_0/clip_by_value_1/y"
  attr {
    key: "T"
    value {
      type: DT_FLOAT
    }
  }
  attr {
    key: "_output_shapes"
    value {
      list {
        shape {
          dim {
            size: -1
          }
          dim {
            size: 32
          }
        }
      }
    }
  }
}
node {
  name: "RNN_net/stacked_rnn_cells_1/LSTM_Layer_0/mul_2"
  op: "Mul"
  input: "RNN_net/stacked_rnn_cells_1/LSTM_Layer_0/clip_by_value_1"
  input: "RNN_net/zeros_1"
  attr {
    key: "T"
    value {
      type: DT_FLOAT
    }
  }
  attr {
    key: "_output_shapes"
    value {
      list {
        shape {
          dim {
            size: -1
          }
          dim {
            size: 32
          }
        }
      }
    }
  }
}
node {
  name: "RNN_net/stacked_rnn_cells_1/LSTM_Layer_0/ReadVariableOp_2"
  op: "ReadVariableOp"
  input: "RNN_net/stacked_rnn_cells/LSTM_Layer_0/recurrent_kernel"
  attr {
    key: "_output_shapes"
    value {
      list {
        shape {
          dim {
            size: 32
          }
          dim {
            size: 128
          }
        }
      }
    }
  }
  attr {
    key: "dtype"
    value {
      type: DT_FLOAT
    }
  }
}
node {
  name: "RNN_net/stacked_rnn_cells_1/LSTM_Layer_0/strided_slice_2/stack"
  op: "Const"
  attr {
    key: "_output_shapes"
    value {
      list {
        shape {
          dim {
            size: 2
          }
        }
      }
    }
  }
  attr {
    key: "dtype"
    value {
      type: DT_INT32
    }
  }
  attr {
    key: "value"
    value {
      tensor {
        dtype: DT_INT32
        tensor_shape {
          dim {
            size: 2
          }
        }
        tensor_content: "\000\000\000\000@\000\000\000"
      }
    }
  }
}
node {
  name: "RNN_net/stacked_rnn_cells_1/LSTM_Layer_0/strided_slice_2/stack_1"
  op: "Const"
  attr {
    key: "_output_shapes"
    value {
      list {
        shape {
          dim {
            size: 2
          }
        }
      }
    }
  }
  attr {
    key: "dtype"
    value {
      type: DT_INT32
    }
  }
  attr {
    key: "value"
    value {
      tensor {
        dtype: DT_INT32
        tensor_shape {
          dim {
            size: 2
          }
        }
        tensor_content: "\000\000\000\000`\000\000\000"
      }
    }
  }
}
node {
  name: "RNN_net/stacked_rnn_cells_1/LSTM_Layer_0/strided_slice_2/stack_2"
  op: "Const"
  attr {
    key: "_output_shapes"
    value {
      list {
        shape {
          dim {
            size: 2
          }
        }
      }
    }
  }
  attr {
    key: "dtype"
    value {
      type: DT_INT32
    }
  }
  attr {
    key: "value"
    value {
      tensor {
        dtype: DT_INT32
        tensor_shape {
          dim {
            size: 2
          }
        }
        tensor_content: "\001\000\000\000\001\000\000\000"
      }
    }
  }
}
node {
  name: "RNN_net/stacked_rnn_cells_1/LSTM_Layer_0/strided_slice_2"
  op: "StridedSlice"
  input: "RNN_net/stacked_rnn_cells_1/LSTM_Layer_0/ReadVariableOp_2"
  input: "RNN_net/stacked_rnn_cells_1/LSTM_Layer_0/strided_slice_2/stack"
  input: "RNN_net/stacked_rnn_cells_1/LSTM_Layer_0/strided_slice_2/stack_1"
  input: "RNN_net/stacked_rnn_cells_1/LSTM_Layer_0/strided_slice_2/stack_2"
  attr {
    key: "Index"
    value {
      type: DT_INT32
    }
  }
  attr {
    key: "T"
    value {
      type: DT_FLOAT
    }
  }
  attr {
    key: "_output_shapes"
    value {
      list {
        shape {
          dim {
            size: 32
          }
          dim {
            size: 32
          }
        }
      }
    }
  }
  attr {
    key: "begin_mask"
    value {
      i: 1
    }
  }
  attr {
    key: "ellipsis_mask"
    value {
      i: 0
    }
  }
  attr {
    key: "end_mask"
    value {
      i: 1
    }
  }
  attr {
    key: "new_axis_mask"
    value {
      i: 0
    }
  }
  attr {
    key: "shrink_axis_mask"
    value {
      i: 0
    }
  }
}
node {
  name: "RNN_net/stacked_rnn_cells_1/LSTM_Layer_0/MatMul_6"
  op: "MatMul"
  input: "RNN_net/zeros"
  input: "RNN_net/stacked_rnn_cells_1/LSTM_Layer_0/strided_slice_2"
  attr {
    key: "T"
    value {
      type: DT_FLOAT
    }
  }
  attr {
    key: "_output_shapes"
    value {
      list {
        shape {
          dim {
            size: -1
          }
          dim {
            size: 32
          }
        }
      }
    }
  }
  attr {
    key: "transpose_a"
    value {
      b: false
    }
  }
  attr {
    key: "transpose_b"
    value {
      b: false
    }
  }
}
node {
  name: "RNN_net/stacked_rnn_cells_1/LSTM_Layer_0/add_4"
  op: "AddV2"
  input: "RNN_net/stacked_rnn_cells_1/LSTM_Layer_0/BiasAdd_2"
  input: "RNN_net/stacked_rnn_cells_1/LSTM_Layer_0/MatMul_6"
  attr {
    key: "T"
    value {
      type: DT_FLOAT
    }
  }
  attr {
    key: "_output_shapes"
    value {
      list {
        shape {
          dim {
            size: -1
          }
          dim {
            size: 32
          }
        }
      }
    }
  }
}
node {
  name: "RNN_net/stacked_rnn_cells_1/LSTM_Layer_0/Tanh"
  op: "Tanh"
  input: "RNN_net/stacked_rnn_cells_1/LSTM_Layer_0/add_4"
  attr {
    key: "T"
    value {
      type: DT_FLOAT
    }
  }
  attr {
    key: "_output_shapes"
    value {
      list {
        shape {
          dim {
            size: -1
          }
          dim {
            size: 32
          }
        }
      }
    }
  }
}
node {
  name: "RNN_net/stacked_rnn_cells_1/LSTM_Layer_0/mul_3"
  op: "Mul"
  input: "RNN_net/stacked_rnn_cells_1/LSTM_Layer_0/clip_by_value"
  input: "RNN_net/stacked_rnn_cells_1/LSTM_Layer_0/Tanh"
  attr {
    key: "T"
    value {
      type: DT_FLOAT
    }
  }
  attr {
    key: "_output_shapes"
    value {
      list {
        shape {
          dim {
            size: -1
          }
          dim {
            size: 32
          }
        }
      }
    }
  }
}
node {
  name: "RNN_net/stacked_rnn_cells_1/LSTM_Layer_0/add_5"
  op: "AddV2"
  input: "RNN_net/stacked_rnn_cells_1/LSTM_Layer_0/mul_2"
  input: "RNN_net/stacked_rnn_cells_1/LSTM_Layer_0/mul_3"
  attr {
    key: "T"
    value {
      type: DT_FLOAT
    }
  }
  attr {
    key: "_output_shapes"
    value {
      list {
        shape {
          dim {
            size: -1
          }
          dim {
            size: 32
          }
        }
      }
    }
  }
}
node {
  name: "RNN_net/stacked_rnn_cells_1/LSTM_Layer_0/ReadVariableOp_3"
  op: "ReadVariableOp"
  input: "RNN_net/stacked_rnn_cells/LSTM_Layer_0/recurrent_kernel"
  attr {
    key: "_output_shapes"
    value {
      list {
        shape {
          dim {
            size: 32
          }
          dim {
            size: 128
          }
        }
      }
    }
  }
  attr {
    key: "dtype"
    value {
      type: DT_FLOAT
    }
  }
}
node {
  name: "RNN_net/stacked_rnn_cells_1/LSTM_Layer_0/strided_slice_3/stack"
  op: "Const"
  attr {
    key: "_output_shapes"
    value {
      list {
        shape {
          dim {
            size: 2
          }
        }
      }
    }
  }
  attr {
    key: "dtype"
    value {
      type: DT_INT32
    }
  }
  attr {
    key: "value"
    value {
      tensor {
        dtype: DT_INT32
        tensor_shape {
          dim {
            size: 2
          }
        }
        tensor_content: "\000\000\000\000`\000\000\000"
      }
    }
  }
}
node {
  name: "RNN_net/stacked_rnn_cells_1/LSTM_Layer_0/strided_slice_3/stack_1"
  op: "Const"
  attr {
    key: "_output_shapes"
    value {
      list {
        shape {
          dim {
            size: 2
          }
        }
      }
    }
  }
  attr {
    key: "dtype"
    value {
      type: DT_INT32
    }
  }
  attr {
    key: "value"
    value {
      tensor {
        dtype: DT_INT32
        tensor_shape {
          dim {
            size: 2
          }
        }
        tensor_content: "\000\000\000\000\000\000\000\000"
      }
    }
  }
}
node {
  name: "RNN_net/stacked_rnn_cells_1/LSTM_Layer_0/strided_slice_3/stack_2"
  op: "Const"
  attr {
    key: "_output_shapes"
    value {
      list {
        shape {
          dim {
            size: 2
          }
        }
      }
    }
  }
  attr {
    key: "dtype"
    value {
      type: DT_INT32
    }
  }
  attr {
    key: "value"
    value {
      tensor {
        dtype: DT_INT32
        tensor_shape {
          dim {
            size: 2
          }
        }
        tensor_content: "\001\000\000\000\001\000\000\000"
      }
    }
  }
}
node {
  name: "RNN_net/stacked_rnn_cells_1/LSTM_Layer_0/strided_slice_3"
  op: "StridedSlice"
  input: "RNN_net/stacked_rnn_cells_1/LSTM_Layer_0/ReadVariableOp_3"
  input: "RNN_net/stacked_rnn_cells_1/LSTM_Layer_0/strided_slice_3/stack"
  input: "RNN_net/stacked_rnn_cells_1/LSTM_Layer_0/strided_slice_3/stack_1"
  input: "RNN_net/stacked_rnn_cells_1/LSTM_Layer_0/strided_slice_3/stack_2"
  attr {
    key: "Index"
    value {
      type: DT_INT32
    }
  }
  attr {
    key: "T"
    value {
      type: DT_FLOAT
    }
  }
  attr {
    key: "_output_shapes"
    value {
      list {
        shape {
          dim {
            size: 32
          }
          dim {
            size: 32
          }
        }
      }
    }
  }
  attr {
    key: "begin_mask"
    value {
      i: 1
    }
  }
  attr {
    key: "ellipsis_mask"
    value {
      i: 0
    }
  }
  attr {
    key: "end_mask"
    value {
      i: 3
    }
  }
  attr {
    key: "new_axis_mask"
    value {
      i: 0
    }
  }
  attr {
    key: "shrink_axis_mask"
    value {
      i: 0
    }
  }
}
node {
  name: "RNN_net/stacked_rnn_cells_1/LSTM_Layer_0/MatMul_7"
  op: "MatMul"
  input: "RNN_net/zeros"
  input: "RNN_net/stacked_rnn_cells_1/LSTM_Layer_0/strided_slice_3"
  attr {
    key: "T"
    value {
      type: DT_FLOAT
    }
  }
  attr {
    key: "_output_shapes"
    value {
      list {
        shape {
          dim {
            size: -1
          }
          dim {
            size: 32
          }
        }
      }
    }
  }
  attr {
    key: "transpose_a"
    value {
      b: false
    }
  }
  attr {
    key: "transpose_b"
    value {
      b: false
    }
  }
}
node {
  name: "RNN_net/stacked_rnn_cells_1/LSTM_Layer_0/add_6"
  op: "AddV2"
  input: "RNN_net/stacked_rnn_cells_1/LSTM_Layer_0/BiasAdd_3"
  input: "RNN_net/stacked_rnn_cells_1/LSTM_Layer_0/MatMul_7"
  attr {
    key: "T"
    value {
      type: DT_FLOAT
    }
  }
  attr {
    key: "_output_shapes"
    value {
      list {
        shape {
          dim {
            size: -1
          }
          dim {
            size: 32
          }
        }
      }
    }
  }
}
node {
  name: "RNN_net/stacked_rnn_cells_1/LSTM_Layer_0/Const_4"
  op: "Const"
  attr {
    key: "_output_shapes"
    value {
      list {
        shape {
        }
      }
    }
  }
  attr {
    key: "dtype"
    value {
      type: DT_FLOAT
    }
  }
  attr {
    key: "value"
    value {
      tensor {
        dtype: DT_FLOAT
        tensor_shape {
        }
        float_val: 0.20000000298023224
      }
    }
  }
}
node {
  name: "RNN_net/stacked_rnn_cells_1/LSTM_Layer_0/Const_5"
  op: "Const"
  attr {
    key: "_output_shapes"
    value {
      list {
        shape {
        }
      }
    }
  }
  attr {
    key: "dtype"
    value {
      type: DT_FLOAT
    }
  }
  attr {
    key: "value"
    value {
      tensor {
        dtype: DT_FLOAT
        tensor_shape {
        }
        float_val: 0.5
      }
    }
  }
}
node {
  name: "RNN_net/stacked_rnn_cells_1/LSTM_Layer_0/Mul_4"
  op: "Mul"
  input: "RNN_net/stacked_rnn_cells_1/LSTM_Layer_0/add_6"
  input: "RNN_net/stacked_rnn_cells_1/LSTM_Layer_0/Const_4"
  attr {
    key: "T"
    value {
      type: DT_FLOAT
    }
  }
  attr {
    key: "_output_shapes"
    value {
      list {
        shape {
          dim {
            size: -1
          }
          dim {
            size: 32
          }
        }
      }
    }
  }
}
node {
  name: "RNN_net/stacked_rnn_cells_1/LSTM_Layer_0/Add_7"
  op: "AddV2"
  input: "RNN_net/stacked_rnn_cells_1/LSTM_Layer_0/Mul_4"
  input: "RNN_net/stacked_rnn_cells_1/LSTM_Layer_0/Const_5"
  attr {
    key: "T"
    value {
      type: DT_FLOAT
    }
  }
  attr {
    key: "_output_shapes"
    value {
      list {
        shape {
          dim {
            size: -1
          }
          dim {
            size: 32
          }
        }
      }
    }
  }
}
node {
  name: "RNN_net/stacked_rnn_cells_1/LSTM_Layer_0/clip_by_value_2/Minimum/y"
  op: "Const"
  attr {
    key: "_output_shapes"
    value {
      list {
        shape {
        }
      }
    }
  }
  attr {
    key: "dtype"
    value {
      type: DT_FLOAT
    }
  }
  attr {
    key: "value"
    value {
      tensor {
        dtype: DT_FLOAT
        tensor_shape {
        }
        float_val: 1.0
      }
    }
  }
}
node {
  name: "RNN_net/stacked_rnn_cells_1/LSTM_Layer_0/clip_by_value_2/Minimum"
  op: "Minimum"
  input: "RNN_net/stacked_rnn_cells_1/LSTM_Layer_0/Add_7"
  input: "RNN_net/stacked_rnn_cells_1/LSTM_Layer_0/clip_by_value_2/Minimum/y"
  attr {
    key: "T"
    value {
      type: DT_FLOAT
    }
  }
  attr {
    key: "_output_shapes"
    value {
      list {
        shape {
          dim {
            size: -1
          }
          dim {
            size: 32
          }
        }
      }
    }
  }
}
node {
  name: "RNN_net/stacked_rnn_cells_1/LSTM_Layer_0/clip_by_value_2/y"
  op: "Const"
  attr {
    key: "_output_shapes"
    value {
      list {
        shape {
        }
      }
    }
  }
  attr {
    key: "dtype"
    value {
      type: DT_FLOAT
    }
  }
  attr {
    key: "value"
    value {
      tensor {
        dtype: DT_FLOAT
        tensor_shape {
        }
        float_val: 0.0
      }
    }
  }
}
node {
  name: "RNN_net/stacked_rnn_cells_1/LSTM_Layer_0/clip_by_value_2"
  op: "Maximum"
  input: "RNN_net/stacked_rnn_cells_1/LSTM_Layer_0/clip_by_value_2/Minimum"
  input: "RNN_net/stacked_rnn_cells_1/LSTM_Layer_0/clip_by_value_2/y"
  attr {
    key: "T"
    value {
      type: DT_FLOAT
    }
  }
  attr {
    key: "_output_shapes"
    value {
      list {
        shape {
          dim {
            size: -1
          }
          dim {
            size: 32
          }
        }
      }
    }
  }
}
node {
  name: "RNN_net/stacked_rnn_cells_1/LSTM_Layer_0/Tanh_1"
  op: "Tanh"
  input: "RNN_net/stacked_rnn_cells_1/LSTM_Layer_0/add_5"
  attr {
    key: "T"
    value {
      type: DT_FLOAT
    }
  }
  attr {
    key: "_output_shapes"
    value {
      list {
        shape {
          dim {
            size: -1
          }
          dim {
            size: 32
          }
        }
      }
    }
  }
}
node {
  name: "RNN_net/stacked_rnn_cells_1/LSTM_Layer_0/mul_5"
  op: "Mul"
  input: "RNN_net/stacked_rnn_cells_1/LSTM_Layer_0/clip_by_value_2"
  input: "RNN_net/stacked_rnn_cells_1/LSTM_Layer_0/Tanh_1"
  attr {
    key: "T"
    value {
      type: DT_FLOAT
    }
  }
  attr {
    key: "_output_shapes"
    value {
      list {
        shape {
          dim {
            size: -1
          }
          dim {
            size: 32
          }
        }
      }
    }
  }
}
node {
  name: "RNN_net/stacked_rnn_cells_1/LSTM_Layer_1/split/split_dim"
  op: "Const"
  attr {
    key: "_output_shapes"
    value {
      list {
        shape {
        }
      }
    }
  }
  attr {
    key: "dtype"
    value {
      type: DT_INT32
    }
  }
  attr {
    key: "value"
    value {
      tensor {
        dtype: DT_INT32
        tensor_shape {
        }
        int_val: 1
      }
    }
  }
}
node {
  name: "RNN_net/stacked_rnn_cells_1/LSTM_Layer_1/split/ReadVariableOp"
  op: "ReadVariableOp"
  input: "RNN_net/stacked_rnn_cells/LSTM_Layer_1/kernel"
  attr {
    key: "_output_shapes"
    value {
      list {
        shape {
          dim {
            size: 32
          }
          dim {
            size: 128
          }
        }
      }
    }
  }
  attr {
    key: "dtype"
    value {
      type: DT_FLOAT
    }
  }
}
node {
  name: "RNN_net/stacked_rnn_cells_1/LSTM_Layer_1/split"
  op: "Split"
  input: "RNN_net/stacked_rnn_cells_1/LSTM_Layer_1/split/split_dim"
  input: "RNN_net/stacked_rnn_cells_1/LSTM_Layer_1/split/ReadVariableOp"
  attr {
    key: "T"
    value {
      type: DT_FLOAT
    }
  }
  attr {
    key: "_output_shapes"
    value {
      list {
        shape {
          dim {
            size: 32
          }
          dim {
            size: 32
          }
        }
        shape {
          dim {
            size: 32
          }
          dim {
            size: 32
          }
        }
        shape {
          dim {
            size: 32
          }
          dim {
            size: 32
          }
        }
        shape {
          dim {
            size: 32
          }
          dim {
            size: 32
          }
        }
      }
    }
  }
  attr {
    key: "num_split"
    value {
      i: 4
    }
  }
}
node {
  name: "RNN_net/stacked_rnn_cells_1/LSTM_Layer_1/MatMul"
  op: "MatMul"
  input: "RNN_net/stacked_rnn_cells_1/LSTM_Layer_0/mul_5"
  input: "RNN_net/stacked_rnn_cells_1/LSTM_Layer_1/split"
  attr {
    key: "T"
    value {
      type: DT_FLOAT
    }
  }
  attr {
    key: "_output_shapes"
    value {
      list {
        shape {
          dim {
            size: -1
          }
          dim {
            size: 32
          }
        }
      }
    }
  }
  attr {
    key: "transpose_a"
    value {
      b: false
    }
  }
  attr {
    key: "transpose_b"
    value {
      b: false
    }
  }
}
node {
  name: "RNN_net/stacked_rnn_cells_1/LSTM_Layer_1/MatMul_1"
  op: "MatMul"
  input: "RNN_net/stacked_rnn_cells_1/LSTM_Layer_0/mul_5"
  input: "RNN_net/stacked_rnn_cells_1/LSTM_Layer_1/split:1"
  attr {
    key: "T"
    value {
      type: DT_FLOAT
    }
  }
  attr {
    key: "_output_shapes"
    value {
      list {
        shape {
          dim {
            size: -1
          }
          dim {
            size: 32
          }
        }
      }
    }
  }
  attr {
    key: "transpose_a"
    value {
      b: false
    }
  }
  attr {
    key: "transpose_b"
    value {
      b: false
    }
  }
}
node {
  name: "RNN_net/stacked_rnn_cells_1/LSTM_Layer_1/MatMul_2"
  op: "MatMul"
  input: "RNN_net/stacked_rnn_cells_1/LSTM_Layer_0/mul_5"
  input: "RNN_net/stacked_rnn_cells_1/LSTM_Layer_1/split:2"
  attr {
    key: "T"
    value {
      type: DT_FLOAT
    }
  }
  attr {
    key: "_output_shapes"
    value {
      list {
        shape {
          dim {
            size: -1
          }
          dim {
            size: 32
          }
        }
      }
    }
  }
  attr {
    key: "transpose_a"
    value {
      b: false
    }
  }
  attr {
    key: "transpose_b"
    value {
      b: false
    }
  }
}
node {
  name: "RNN_net/stacked_rnn_cells_1/LSTM_Layer_1/MatMul_3"
  op: "MatMul"
  input: "RNN_net/stacked_rnn_cells_1/LSTM_Layer_0/mul_5"
  input: "RNN_net/stacked_rnn_cells_1/LSTM_Layer_1/split:3"
  attr {
    key: "T"
    value {
      type: DT_FLOAT
    }
  }
  attr {
    key: "_output_shapes"
    value {
      list {
        shape {
          dim {
            size: -1
          }
          dim {
            size: 32
          }
        }
      }
    }
  }
  attr {
    key: "transpose_a"
    value {
      b: false
    }
  }
  attr {
    key: "transpose_b"
    value {
      b: false
    }
  }
}
node {
  name: "RNN_net/stacked_rnn_cells_1/LSTM_Layer_1/split_1/split_dim"
  op: "Const"
  attr {
    key: "_output_shapes"
    value {
      list {
        shape {
        }
      }
    }
  }
  attr {
    key: "dtype"
    value {
      type: DT_INT32
    }
  }
  attr {
    key: "value"
    value {
      tensor {
        dtype: DT_INT32
        tensor_shape {
        }
        int_val: 0
      }
    }
  }
}
node {
  name: "RNN_net/stacked_rnn_cells_1/LSTM_Layer_1/split_1/ReadVariableOp"
  op: "ReadVariableOp"
  input: "RNN_net/stacked_rnn_cells/LSTM_Layer_1/bias"
  attr {
    key: "_output_shapes"
    value {
      list {
        shape {
          dim {
            size: 128
          }
        }
      }
    }
  }
  attr {
    key: "dtype"
    value {
      type: DT_FLOAT
    }
  }
}
node {
  name: "RNN_net/stacked_rnn_cells_1/LSTM_Layer_1/split_1"
  op: "Split"
  input: "RNN_net/stacked_rnn_cells_1/LSTM_Layer_1/split_1/split_dim"
  input: "RNN_net/stacked_rnn_cells_1/LSTM_Layer_1/split_1/ReadVariableOp"
  attr {
    key: "T"
    value {
      type: DT_FLOAT
    }
  }
  attr {
    key: "_output_shapes"
    value {
      list {
        shape {
          dim {
            size: 32
          }
        }
        shape {
          dim {
            size: 32
          }
        }
        shape {
          dim {
            size: 32
          }
        }
        shape {
          dim {
            size: 32
          }
        }
      }
    }
  }
  attr {
    key: "num_split"
    value {
      i: 4
    }
  }
}
node {
  name: "RNN_net/stacked_rnn_cells_1/LSTM_Layer_1/BiasAdd"
  op: "BiasAdd"
  input: "RNN_net/stacked_rnn_cells_1/LSTM_Layer_1/MatMul"
  input: "RNN_net/stacked_rnn_cells_1/LSTM_Layer_1/split_1"
  attr {
    key: "T"
    value {
      type: DT_FLOAT
    }
  }
  attr {
    key: "_output_shapes"
    value {
      list {
        shape {
          dim {
            size: -1
          }
          dim {
            size: 32
          }
        }
      }
    }
  }
  attr {
    key: "data_format"
    value {
      s: "NHWC"
    }
  }
}
node {
  name: "RNN_net/stacked_rnn_cells_1/LSTM_Layer_1/BiasAdd_1"
  op: "BiasAdd"
  input: "RNN_net/stacked_rnn_cells_1/LSTM_Layer_1/MatMul_1"
  input: "RNN_net/stacked_rnn_cells_1/LSTM_Layer_1/split_1:1"
  attr {
    key: "T"
    value {
      type: DT_FLOAT
    }
  }
  attr {
    key: "_output_shapes"
    value {
      list {
        shape {
          dim {
            size: -1
          }
          dim {
            size: 32
          }
        }
      }
    }
  }
  attr {
    key: "data_format"
    value {
      s: "NHWC"
    }
  }
}
node {
  name: "RNN_net/stacked_rnn_cells_1/LSTM_Layer_1/BiasAdd_2"
  op: "BiasAdd"
  input: "RNN_net/stacked_rnn_cells_1/LSTM_Layer_1/MatMul_2"
  input: "RNN_net/stacked_rnn_cells_1/LSTM_Layer_1/split_1:2"
  attr {
    key: "T"
    value {
      type: DT_FLOAT
    }
  }
  attr {
    key: "_output_shapes"
    value {
      list {
        shape {
          dim {
            size: -1
          }
          dim {
            size: 32
          }
        }
      }
    }
  }
  attr {
    key: "data_format"
    value {
      s: "NHWC"
    }
  }
}
node {
  name: "RNN_net/stacked_rnn_cells_1/LSTM_Layer_1/BiasAdd_3"
  op: "BiasAdd"
  input: "RNN_net/stacked_rnn_cells_1/LSTM_Layer_1/MatMul_3"
  input: "RNN_net/stacked_rnn_cells_1/LSTM_Layer_1/split_1:3"
  attr {
    key: "T"
    value {
      type: DT_FLOAT
    }
  }
  attr {
    key: "_output_shapes"
    value {
      list {
        shape {
          dim {
            size: -1
          }
          dim {
            size: 32
          }
        }
      }
    }
  }
  attr {
    key: "data_format"
    value {
      s: "NHWC"
    }
  }
}
node {
  name: "RNN_net/stacked_rnn_cells_1/LSTM_Layer_1/ReadVariableOp"
  op: "ReadVariableOp"
  input: "RNN_net/stacked_rnn_cells/LSTM_Layer_1/recurrent_kernel"
  attr {
    key: "_output_shapes"
    value {
      list {
        shape {
          dim {
            size: 32
          }
          dim {
            size: 128
          }
        }
      }
    }
  }
  attr {
    key: "dtype"
    value {
      type: DT_FLOAT
    }
  }
}
node {
  name: "RNN_net/stacked_rnn_cells_1/LSTM_Layer_1/strided_slice/stack"
  op: "Const"
  attr {
    key: "_output_shapes"
    value {
      list {
        shape {
          dim {
            size: 2
          }
        }
      }
    }
  }
  attr {
    key: "dtype"
    value {
      type: DT_INT32
    }
  }
  attr {
    key: "value"
    value {
      tensor {
        dtype: DT_INT32
        tensor_shape {
          dim {
            size: 2
          }
        }
        tensor_content: "\000\000\000\000\000\000\000\000"
      }
    }
  }
}
node {
  name: "RNN_net/stacked_rnn_cells_1/LSTM_Layer_1/strided_slice/stack_1"
  op: "Const"
  attr {
    key: "_output_shapes"
    value {
      list {
        shape {
          dim {
            size: 2
          }
        }
      }
    }
  }
  attr {
    key: "dtype"
    value {
      type: DT_INT32
    }
  }
  attr {
    key: "value"
    value {
      tensor {
        dtype: DT_INT32
        tensor_shape {
          dim {
            size: 2
          }
        }
        tensor_content: "\000\000\000\000 \000\000\000"
      }
    }
  }
}
node {
  name: "RNN_net/stacked_rnn_cells_1/LSTM_Layer_1/strided_slice/stack_2"
  op: "Const"
  attr {
    key: "_output_shapes"
    value {
      list {
        shape {
          dim {
            size: 2
          }
        }
      }
    }
  }
  attr {
    key: "dtype"
    value {
      type: DT_INT32
    }
  }
  attr {
    key: "value"
    value {
      tensor {
        dtype: DT_INT32
        tensor_shape {
          dim {
            size: 2
          }
        }
        tensor_content: "\001\000\000\000\001\000\000\000"
      }
    }
  }
}
node {
  name: "RNN_net/stacked_rnn_cells_1/LSTM_Layer_1/strided_slice"
  op: "StridedSlice"
  input: "RNN_net/stacked_rnn_cells_1/LSTM_Layer_1/ReadVariableOp"
  input: "RNN_net/stacked_rnn_cells_1/LSTM_Layer_1/strided_slice/stack"
  input: "RNN_net/stacked_rnn_cells_1/LSTM_Layer_1/strided_slice/stack_1"
  input: "RNN_net/stacked_rnn_cells_1/LSTM_Layer_1/strided_slice/stack_2"
  attr {
    key: "Index"
    value {
      type: DT_INT32
    }
  }
  attr {
    key: "T"
    value {
      type: DT_FLOAT
    }
  }
  attr {
    key: "_output_shapes"
    value {
      list {
        shape {
          dim {
            size: 32
          }
          dim {
            size: 32
          }
        }
      }
    }
  }
  attr {
    key: "begin_mask"
    value {
      i: 3
    }
  }
  attr {
    key: "ellipsis_mask"
    value {
      i: 0
    }
  }
  attr {
    key: "end_mask"
    value {
      i: 1
    }
  }
  attr {
    key: "new_axis_mask"
    value {
      i: 0
    }
  }
  attr {
    key: "shrink_axis_mask"
    value {
      i: 0
    }
  }
}
node {
  name: "RNN_net/stacked_rnn_cells_1/LSTM_Layer_1/MatMul_4"
  op: "MatMul"
  input: "RNN_net/zeros_2"
  input: "RNN_net/stacked_rnn_cells_1/LSTM_Layer_1/strided_slice"
  attr {
    key: "T"
    value {
      type: DT_FLOAT
    }
  }
  attr {
    key: "_output_shapes"
    value {
      list {
        shape {
          dim {
            size: -1
          }
          dim {
            size: 32
          }
        }
      }
    }
  }
  attr {
    key: "transpose_a"
    value {
      b: false
    }
  }
  attr {
    key: "transpose_b"
    value {
      b: false
    }
  }
}
node {
  name: "RNN_net/stacked_rnn_cells_1/LSTM_Layer_1/add"
  op: "AddV2"
  input: "RNN_net/stacked_rnn_cells_1/LSTM_Layer_1/BiasAdd"
  input: "RNN_net/stacked_rnn_cells_1/LSTM_Layer_1/MatMul_4"
  attr {
    key: "T"
    value {
      type: DT_FLOAT
    }
  }
  attr {
    key: "_output_shapes"
    value {
      list {
        shape {
          dim {
            size: -1
          }
          dim {
            size: 32
          }
        }
      }
    }
  }
}
node {
  name: "RNN_net/stacked_rnn_cells_1/LSTM_Layer_1/Const"
  op: "Const"
  attr {
    key: "_output_shapes"
    value {
      list {
        shape {
        }
      }
    }
  }
  attr {
    key: "dtype"
    value {
      type: DT_FLOAT
    }
  }
  attr {
    key: "value"
    value {
      tensor {
        dtype: DT_FLOAT
        tensor_shape {
        }
        float_val: 0.20000000298023224
      }
    }
  }
}
node {
  name: "RNN_net/stacked_rnn_cells_1/LSTM_Layer_1/Const_1"
  op: "Const"
  attr {
    key: "_output_shapes"
    value {
      list {
        shape {
        }
      }
    }
  }
  attr {
    key: "dtype"
    value {
      type: DT_FLOAT
    }
  }
  attr {
    key: "value"
    value {
      tensor {
        dtype: DT_FLOAT
        tensor_shape {
        }
        float_val: 0.5
      }
    }
  }
}
node {
  name: "RNN_net/stacked_rnn_cells_1/LSTM_Layer_1/Mul"
  op: "Mul"
  input: "RNN_net/stacked_rnn_cells_1/LSTM_Layer_1/add"
  input: "RNN_net/stacked_rnn_cells_1/LSTM_Layer_1/Const"
  attr {
    key: "T"
    value {
      type: DT_FLOAT
    }
  }
  attr {
    key: "_output_shapes"
    value {
      list {
        shape {
          dim {
            size: -1
          }
          dim {
            size: 32
          }
        }
      }
    }
  }
}
node {
  name: "RNN_net/stacked_rnn_cells_1/LSTM_Layer_1/Add_1"
  op: "AddV2"
  input: "RNN_net/stacked_rnn_cells_1/LSTM_Layer_1/Mul"
  input: "RNN_net/stacked_rnn_cells_1/LSTM_Layer_1/Const_1"
  attr {
    key: "T"
    value {
      type: DT_FLOAT
    }
  }
  attr {
    key: "_output_shapes"
    value {
      list {
        shape {
          dim {
            size: -1
          }
          dim {
            size: 32
          }
        }
      }
    }
  }
}
node {
  name: "RNN_net/stacked_rnn_cells_1/LSTM_Layer_1/clip_by_value/Minimum/y"
  op: "Const"
  attr {
    key: "_output_shapes"
    value {
      list {
        shape {
        }
      }
    }
  }
  attr {
    key: "dtype"
    value {
      type: DT_FLOAT
    }
  }
  attr {
    key: "value"
    value {
      tensor {
        dtype: DT_FLOAT
        tensor_shape {
        }
        float_val: 1.0
      }
    }
  }
}
node {
  name: "RNN_net/stacked_rnn_cells_1/LSTM_Layer_1/clip_by_value/Minimum"
  op: "Minimum"
  input: "RNN_net/stacked_rnn_cells_1/LSTM_Layer_1/Add_1"
  input: "RNN_net/stacked_rnn_cells_1/LSTM_Layer_1/clip_by_value/Minimum/y"
  attr {
    key: "T"
    value {
      type: DT_FLOAT
    }
  }
  attr {
    key: "_output_shapes"
    value {
      list {
        shape {
          dim {
            size: -1
          }
          dim {
            size: 32
          }
        }
      }
    }
  }
}
node {
  name: "RNN_net/stacked_rnn_cells_1/LSTM_Layer_1/clip_by_value/y"
  op: "Const"
  attr {
    key: "_output_shapes"
    value {
      list {
        shape {
        }
      }
    }
  }
  attr {
    key: "dtype"
    value {
      type: DT_FLOAT
    }
  }
  attr {
    key: "value"
    value {
      tensor {
        dtype: DT_FLOAT
        tensor_shape {
        }
        float_val: 0.0
      }
    }
  }
}
node {
  name: "RNN_net/stacked_rnn_cells_1/LSTM_Layer_1/clip_by_value"
  op: "Maximum"
  input: "RNN_net/stacked_rnn_cells_1/LSTM_Layer_1/clip_by_value/Minimum"
  input: "RNN_net/stacked_rnn_cells_1/LSTM_Layer_1/clip_by_value/y"
  attr {
    key: "T"
    value {
      type: DT_FLOAT
    }
  }
  attr {
    key: "_output_shapes"
    value {
      list {
        shape {
          dim {
            size: -1
          }
          dim {
            size: 32
          }
        }
      }
    }
  }
}
node {
  name: "RNN_net/stacked_rnn_cells_1/LSTM_Layer_1/ReadVariableOp_1"
  op: "ReadVariableOp"
  input: "RNN_net/stacked_rnn_cells/LSTM_Layer_1/recurrent_kernel"
  attr {
    key: "_output_shapes"
    value {
      list {
        shape {
          dim {
            size: 32
          }
          dim {
            size: 128
          }
        }
      }
    }
  }
  attr {
    key: "dtype"
    value {
      type: DT_FLOAT
    }
  }
}
node {
  name: "RNN_net/stacked_rnn_cells_1/LSTM_Layer_1/strided_slice_1/stack"
  op: "Const"
  attr {
    key: "_output_shapes"
    value {
      list {
        shape {
          dim {
            size: 2
          }
        }
      }
    }
  }
  attr {
    key: "dtype"
    value {
      type: DT_INT32
    }
  }
  attr {
    key: "value"
    value {
      tensor {
        dtype: DT_INT32
        tensor_shape {
          dim {
            size: 2
          }
        }
        tensor_content: "\000\000\000\000 \000\000\000"
      }
    }
  }
}
node {
  name: "RNN_net/stacked_rnn_cells_1/LSTM_Layer_1/strided_slice_1/stack_1"
  op: "Const"
  attr {
    key: "_output_shapes"
    value {
      list {
        shape {
          dim {
            size: 2
          }
        }
      }
    }
  }
  attr {
    key: "dtype"
    value {
      type: DT_INT32
    }
  }
  attr {
    key: "value"
    value {
      tensor {
        dtype: DT_INT32
        tensor_shape {
          dim {
            size: 2
          }
        }
        tensor_content: "\000\000\000\000@\000\000\000"
      }
    }
  }
}
node {
  name: "RNN_net/stacked_rnn_cells_1/LSTM_Layer_1/strided_slice_1/stack_2"
  op: "Const"
  attr {
    key: "_output_shapes"
    value {
      list {
        shape {
          dim {
            size: 2
          }
        }
      }
    }
  }
  attr {
    key: "dtype"
    value {
      type: DT_INT32
    }
  }
  attr {
    key: "value"
    value {
      tensor {
        dtype: DT_INT32
        tensor_shape {
          dim {
            size: 2
          }
        }
        tensor_content: "\001\000\000\000\001\000\000\000"
      }
    }
  }
}
node {
  name: "RNN_net/stacked_rnn_cells_1/LSTM_Layer_1/strided_slice_1"
  op: "StridedSlice"
  input: "RNN_net/stacked_rnn_cells_1/LSTM_Layer_1/ReadVariableOp_1"
  input: "RNN_net/stacked_rnn_cells_1/LSTM_Layer_1/strided_slice_1/stack"
  input: "RNN_net/stacked_rnn_cells_1/LSTM_Layer_1/strided_slice_1/stack_1"
  input: "RNN_net/stacked_rnn_cells_1/LSTM_Layer_1/strided_slice_1/stack_2"
  attr {
    key: "Index"
    value {
      type: DT_INT32
    }
  }
  attr {
    key: "T"
    value {
      type: DT_FLOAT
    }
  }
  attr {
    key: "_output_shapes"
    value {
      list {
        shape {
          dim {
            size: 32
          }
          dim {
            size: 32
          }
        }
      }
    }
  }
  attr {
    key: "begin_mask"
    value {
      i: 1
    }
  }
  attr {
    key: "ellipsis_mask"
    value {
      i: 0
    }
  }
  attr {
    key: "end_mask"
    value {
      i: 1
    }
  }
  attr {
    key: "new_axis_mask"
    value {
      i: 0
    }
  }
  attr {
    key: "shrink_axis_mask"
    value {
      i: 0
    }
  }
}
node {
  name: "RNN_net/stacked_rnn_cells_1/LSTM_Layer_1/MatMul_5"
  op: "MatMul"
  input: "RNN_net/zeros_2"
  input: "RNN_net/stacked_rnn_cells_1/LSTM_Layer_1/strided_slice_1"
  attr {
    key: "T"
    value {
      type: DT_FLOAT
    }
  }
  attr {
    key: "_output_shapes"
    value {
      list {
        shape {
          dim {
            size: -1
          }
          dim {
            size: 32
          }
        }
      }
    }
  }
  attr {
    key: "transpose_a"
    value {
      b: false
    }
  }
  attr {
    key: "transpose_b"
    value {
      b: false
    }
  }
}
node {
  name: "RNN_net/stacked_rnn_cells_1/LSTM_Layer_1/add_2"
  op: "AddV2"
  input: "RNN_net/stacked_rnn_cells_1/LSTM_Layer_1/BiasAdd_1"
  input: "RNN_net/stacked_rnn_cells_1/LSTM_Layer_1/MatMul_5"
  attr {
    key: "T"
    value {
      type: DT_FLOAT
    }
  }
  attr {
    key: "_output_shapes"
    value {
      list {
        shape {
          dim {
            size: -1
          }
          dim {
            size: 32
          }
        }
      }
    }
  }
}
node {
  name: "RNN_net/stacked_rnn_cells_1/LSTM_Layer_1/Const_2"
  op: "Const"
  attr {
    key: "_output_shapes"
    value {
      list {
        shape {
        }
      }
    }
  }
  attr {
    key: "dtype"
    value {
      type: DT_FLOAT
    }
  }
  attr {
    key: "value"
    value {
      tensor {
        dtype: DT_FLOAT
        tensor_shape {
        }
        float_val: 0.20000000298023224
      }
    }
  }
}
node {
  name: "RNN_net/stacked_rnn_cells_1/LSTM_Layer_1/Const_3"
  op: "Const"
  attr {
    key: "_output_shapes"
    value {
      list {
        shape {
        }
      }
    }
  }
  attr {
    key: "dtype"
    value {
      type: DT_FLOAT
    }
  }
  attr {
    key: "value"
    value {
      tensor {
        dtype: DT_FLOAT
        tensor_shape {
        }
        float_val: 0.5
      }
    }
  }
}
node {
  name: "RNN_net/stacked_rnn_cells_1/LSTM_Layer_1/Mul_1"
  op: "Mul"
  input: "RNN_net/stacked_rnn_cells_1/LSTM_Layer_1/add_2"
  input: "RNN_net/stacked_rnn_cells_1/LSTM_Layer_1/Const_2"
  attr {
    key: "T"
    value {
      type: DT_FLOAT
    }
  }
  attr {
    key: "_output_shapes"
    value {
      list {
        shape {
          dim {
            size: -1
          }
          dim {
            size: 32
          }
        }
      }
    }
  }
}
node {
  name: "RNN_net/stacked_rnn_cells_1/LSTM_Layer_1/Add_3"
  op: "AddV2"
  input: "RNN_net/stacked_rnn_cells_1/LSTM_Layer_1/Mul_1"
  input: "RNN_net/stacked_rnn_cells_1/LSTM_Layer_1/Const_3"
  attr {
    key: "T"
    value {
      type: DT_FLOAT
    }
  }
  attr {
    key: "_output_shapes"
    value {
      list {
        shape {
          dim {
            size: -1
          }
          dim {
            size: 32
          }
        }
      }
    }
  }
}
node {
  name: "RNN_net/stacked_rnn_cells_1/LSTM_Layer_1/clip_by_value_1/Minimum/y"
  op: "Const"
  attr {
    key: "_output_shapes"
    value {
      list {
        shape {
        }
      }
    }
  }
  attr {
    key: "dtype"
    value {
      type: DT_FLOAT
    }
  }
  attr {
    key: "value"
    value {
      tensor {
        dtype: DT_FLOAT
        tensor_shape {
        }
        float_val: 1.0
      }
    }
  }
}
node {
  name: "RNN_net/stacked_rnn_cells_1/LSTM_Layer_1/clip_by_value_1/Minimum"
  op: "Minimum"
  input: "RNN_net/stacked_rnn_cells_1/LSTM_Layer_1/Add_3"
  input: "RNN_net/stacked_rnn_cells_1/LSTM_Layer_1/clip_by_value_1/Minimum/y"
  attr {
    key: "T"
    value {
      type: DT_FLOAT
    }
  }
  attr {
    key: "_output_shapes"
    value {
      list {
        shape {
          dim {
            size: -1
          }
          dim {
            size: 32
          }
        }
      }
    }
  }
}
node {
  name: "RNN_net/stacked_rnn_cells_1/LSTM_Layer_1/clip_by_value_1/y"
  op: "Const"
  attr {
    key: "_output_shapes"
    value {
      list {
        shape {
        }
      }
    }
  }
  attr {
    key: "dtype"
    value {
      type: DT_FLOAT
    }
  }
  attr {
    key: "value"
    value {
      tensor {
        dtype: DT_FLOAT
        tensor_shape {
        }
        float_val: 0.0
      }
    }
  }
}
node {
  name: "RNN_net/stacked_rnn_cells_1/LSTM_Layer_1/clip_by_value_1"
  op: "Maximum"
  input: "RNN_net/stacked_rnn_cells_1/LSTM_Layer_1/clip_by_value_1/Minimum"
  input: "RNN_net/stacked_rnn_cells_1/LSTM_Layer_1/clip_by_value_1/y"
  attr {
    key: "T"
    value {
      type: DT_FLOAT
    }
  }
  attr {
    key: "_output_shapes"
    value {
      list {
        shape {
          dim {
            size: -1
          }
          dim {
            size: 32
          }
        }
      }
    }
  }
}
node {
  name: "RNN_net/stacked_rnn_cells_1/LSTM_Layer_1/mul_2"
  op: "Mul"
  input: "RNN_net/stacked_rnn_cells_1/LSTM_Layer_1/clip_by_value_1"
  input: "RNN_net/zeros_3"
  attr {
    key: "T"
    value {
      type: DT_FLOAT
    }
  }
  attr {
    key: "_output_shapes"
    value {
      list {
        shape {
          dim {
            size: -1
          }
          dim {
            size: 32
          }
        }
      }
    }
  }
}
node {
  name: "RNN_net/stacked_rnn_cells_1/LSTM_Layer_1/ReadVariableOp_2"
  op: "ReadVariableOp"
  input: "RNN_net/stacked_rnn_cells/LSTM_Layer_1/recurrent_kernel"
  attr {
    key: "_output_shapes"
    value {
      list {
        shape {
          dim {
            size: 32
          }
          dim {
            size: 128
          }
        }
      }
    }
  }
  attr {
    key: "dtype"
    value {
      type: DT_FLOAT
    }
  }
}
node {
  name: "RNN_net/stacked_rnn_cells_1/LSTM_Layer_1/strided_slice_2/stack"
  op: "Const"
  attr {
    key: "_output_shapes"
    value {
      list {
        shape {
          dim {
            size: 2
          }
        }
      }
    }
  }
  attr {
    key: "dtype"
    value {
      type: DT_INT32
    }
  }
  attr {
    key: "value"
    value {
      tensor {
        dtype: DT_INT32
        tensor_shape {
          dim {
            size: 2
          }
        }
        tensor_content: "\000\000\000\000@\000\000\000"
      }
    }
  }
}
node {
  name: "RNN_net/stacked_rnn_cells_1/LSTM_Layer_1/strided_slice_2/stack_1"
  op: "Const"
  attr {
    key: "_output_shapes"
    value {
      list {
        shape {
          dim {
            size: 2
          }
        }
      }
    }
  }
  attr {
    key: "dtype"
    value {
      type: DT_INT32
    }
  }
  attr {
    key: "value"
    value {
      tensor {
        dtype: DT_INT32
        tensor_shape {
          dim {
            size: 2
          }
        }
        tensor_content: "\000\000\000\000`\000\000\000"
      }
    }
  }
}
node {
  name: "RNN_net/stacked_rnn_cells_1/LSTM_Layer_1/strided_slice_2/stack_2"
  op: "Const"
  attr {
    key: "_output_shapes"
    value {
      list {
        shape {
          dim {
            size: 2
          }
        }
      }
    }
  }
  attr {
    key: "dtype"
    value {
      type: DT_INT32
    }
  }
  attr {
    key: "value"
    value {
      tensor {
        dtype: DT_INT32
        tensor_shape {
          dim {
            size: 2
          }
        }
        tensor_content: "\001\000\000\000\001\000\000\000"
      }
    }
  }
}
node {
  name: "RNN_net/stacked_rnn_cells_1/LSTM_Layer_1/strided_slice_2"
  op: "StridedSlice"
  input: "RNN_net/stacked_rnn_cells_1/LSTM_Layer_1/ReadVariableOp_2"
  input: "RNN_net/stacked_rnn_cells_1/LSTM_Layer_1/strided_slice_2/stack"
  input: "RNN_net/stacked_rnn_cells_1/LSTM_Layer_1/strided_slice_2/stack_1"
  input: "RNN_net/stacked_rnn_cells_1/LSTM_Layer_1/strided_slice_2/stack_2"
  attr {
    key: "Index"
    value {
      type: DT_INT32
    }
  }
  attr {
    key: "T"
    value {
      type: DT_FLOAT
    }
  }
  attr {
    key: "_output_shapes"
    value {
      list {
        shape {
          dim {
            size: 32
          }
          dim {
            size: 32
          }
        }
      }
    }
  }
  attr {
    key: "begin_mask"
    value {
      i: 1
    }
  }
  attr {
    key: "ellipsis_mask"
    value {
      i: 0
    }
  }
  attr {
    key: "end_mask"
    value {
      i: 1
    }
  }
  attr {
    key: "new_axis_mask"
    value {
      i: 0
    }
  }
  attr {
    key: "shrink_axis_mask"
    value {
      i: 0
    }
  }
}
node {
  name: "RNN_net/stacked_rnn_cells_1/LSTM_Layer_1/MatMul_6"
  op: "MatMul"
  input: "RNN_net/zeros_2"
  input: "RNN_net/stacked_rnn_cells_1/LSTM_Layer_1/strided_slice_2"
  attr {
    key: "T"
    value {
      type: DT_FLOAT
    }
  }
  attr {
    key: "_output_shapes"
    value {
      list {
        shape {
          dim {
            size: -1
          }
          dim {
            size: 32
          }
        }
      }
    }
  }
  attr {
    key: "transpose_a"
    value {
      b: false
    }
  }
  attr {
    key: "transpose_b"
    value {
      b: false
    }
  }
}
node {
  name: "RNN_net/stacked_rnn_cells_1/LSTM_Layer_1/add_4"
  op: "AddV2"
  input: "RNN_net/stacked_rnn_cells_1/LSTM_Layer_1/BiasAdd_2"
  input: "RNN_net/stacked_rnn_cells_1/LSTM_Layer_1/MatMul_6"
  attr {
    key: "T"
    value {
      type: DT_FLOAT
    }
  }
  attr {
    key: "_output_shapes"
    value {
      list {
        shape {
          dim {
            size: -1
          }
          dim {
            size: 32
          }
        }
      }
    }
  }
}
node {
  name: "RNN_net/stacked_rnn_cells_1/LSTM_Layer_1/Tanh"
  op: "Tanh"
  input: "RNN_net/stacked_rnn_cells_1/LSTM_Layer_1/add_4"
  attr {
    key: "T"
    value {
      type: DT_FLOAT
    }
  }
  attr {
    key: "_output_shapes"
    value {
      list {
        shape {
          dim {
            size: -1
          }
…
              shape {
              }
            }
          }
        }
      }
    }
    arg_attr {
      key: 83
      value {
        attr {
          key: "_output_shapes"
          value {
            list {
              shape {
              }
            }
          }
        }
      }
    }
    arg_attr {
      key: 84
      value {
        attr {
          key: "_output_shapes"
          value {
            list {
              shape {
              }
            }
          }
        }
      }
    }
    arg_attr {
      key: 85
      value {
        attr {
          key: "_output_shapes"
          value {
            list {
              shape {
              }
            }
          }
        }
      }
    }
    arg_attr {
      key: 86
      value {
        attr {
          key: "_output_shapes"
          value {
            list {
              shape {
              }
            }
          }
        }
      }
    }
    arg_attr {
      key: 87
      value {
        attr {
          key: "_output_shapes"
          value {
            list {
              shape {
              }
            }
          }
        }
      }
    }
    arg_attr {
      key: 88
      value {
        attr {
          key: "_output_shapes"
          value {
            list {
              shape {
              }
            }
          }
        }
      }
    }
    arg_attr {
      key: 89
      value {
        attr {
          key: "_output_shapes"
          value {
            list {
              shape {
              }
            }
          }
        }
      }
    }
    arg_attr {
      key: 90
      value {
        attr {
          key: "_output_shapes"
          value {
            list {
              shape {
              }
            }
          }
        }
      }
    }
    arg_attr {
      key: 91
      value {
        attr {
          key: "_output_shapes"
          value {
            list {
              shape {
              }
            }
          }
        }
      }
    }
    arg_attr {
      key: 92
      value {
        attr {
          key: "_output_shapes"
          value {
            list {
              shape {
              }
            }
          }
        }
      }
    }
    arg_attr {
      key: 93
      value {
        attr {
          key: "_output_shapes"
          value {
            list {
              shape {
              }
            }
          }
        }
      }
    }
    arg_attr {
      key: 94
      value {
        attr {
          key: "_output_shapes"
          value {
            list {
              shape {
              }
            }
          }
        }
      }
    }
    arg_attr {
      key: 95
      value {
        attr {
          key: "_output_shapes"
          value {
            list {
              shape {
              }
            }
          }
        }
      }
    }
    arg_attr {
      key: 96
      value {
        attr {
          key: "_output_shapes"
          value {
            list {
              shape {
              }
            }
          }
        }
      }
    }
    arg_attr {
      key: 97
      value {
        attr {
          key: "_output_shapes"
          value {
            list {
              shape {
              }
            }
          }
        }
      }
    }
    arg_attr {
      key: 98
      value {
        attr {
          key: "_output_shapes"
          value {
            list {
              shape {
              }
            }
          }
        }
      }
    }
    arg_attr {
      key: 99
      value {
        attr {
          key: "_output_shapes"
          value {
            list {
              shape {
              }
            }
          }
        }
      }
    }
    arg_attr {
      key: 100
      value {
        attr {
          key: "_output_shapes"
          value {
            list {
              shape {
              }
            }
          }
        }
      }
    }
    arg_attr {
      key: 101
      value {
        attr {
          key: "_output_shapes"
          value {
            list {
              shape {
              }
            }
          }
        }
      }
    }
    arg_attr {
      key: 102
      value {
        attr {
          key: "_output_shapes"
          value {
            list {
              shape {
              }
            }
          }
        }
      }
    }
    arg_attr {
      key: 103
      value {
        attr {
          key: "_output_shapes"
          value {
            list {
              shape {
              }
            }
          }
        }
      }
    }
    arg_attr {
      key: 104
      value {
        attr {
          key: "_output_shapes"
          value {
            list {
              shape {
              }
            }
          }
        }
      }
    }
    arg_attr {
      key: 105
      value {
        attr {
          key: "_output_shapes"
          value {
            list {
              shape {
              }
            }
          }
        }
      }
    }
    arg_attr {
      key: 106
      value {
        attr {
          key: "_output_shapes"
          value {
            list {
              shape {
              }
            }
          }
        }
      }
    }
    arg_attr {
      key: 107
      value {
        attr {
          key: "_output_shapes"
          value {
            list {
              shape {
              }
            }
          }
        }
      }
    }
    arg_attr {
      key: 108
      value {
        attr {
          key: "_output_shapes"
          value {
            list {
              shape {
              }
            }
          }
        }
      }
    }
    arg_attr {
      key: 109
      value {
        attr {
          key: "_output_shapes"
          value {
            list {
              shape {
              }
            }
          }
        }
      }
    }
    arg_attr {
      key: 110
      value {
        attr {
          key: "_output_shapes"
          value {
            list {
              shape {
              }
            }
          }
        }
      }
    }
    arg_attr {
      key: 111
      value {
        attr {
          key: "_output_shapes"
          value {
            list {
              shape {
              }
            }
          }
        }
      }
    }
    arg_attr {
      key: 112
      value {
        attr {
          key: "_output_shapes"
          value {
            list {
              shape {
              }
            }
          }
        }
      }
    }
    arg_attr {
      key: 113
      value {
        attr {
          key: "_output_shapes"
          value {
            list {
              shape {
              }
            }
          }
        }
      }
    }
    arg_attr {
      key: 114
      value {
        attr {
          key: "_output_shapes"
          value {
            list {
              shape {
              }
            }
          }
        }
      }
    }
    arg_attr {
      key: 115
      value {
        attr {
          key: "_output_shapes"
          value {
            list {
              shape {
              }
            }
          }
        }
      }
    }
    arg_attr {
      key: 116
      value {
        attr {
          key: "_output_shapes"
          value {
            list {
              shape {
              }
            }
          }
        }
      }
    }
    arg_attr {
      key: 117
      value {
        attr {
          key: "_output_shapes"
          value {
            list {
              shape {
              }
            }
          }
        }
      }
    }
    arg_attr {
      key: 118
      value {
        attr {
          key: "_output_shapes"
          value {
            list {
              shape {
              }
            }
          }
        }
      }
    }
    arg_attr {
      key: 119
      value {
        attr {
          key: "_output_shapes"
          value {
            list {
              shape {
              }
            }
          }
        }
      }
    }
    arg_attr {
      key: 120
      value {
        attr {
          key: "_output_shapes"
          value {
            list {
              shape {
              }
            }
          }
        }
      }
    }
    arg_attr {
      key: 121
      value {
        attr {
          key: "_output_shapes"
          value {
            list {
              shape {
              }
            }
          }
        }
      }
    }
    arg_attr {
      key: 122
      value {
        attr {
          key: "_output_shapes"
          value {
            list {
              shape {
              }
            }
          }
        }
      }
    }
    arg_attr {
      key: 123
      value {
        attr {
          key: "_output_shapes"
          value {
            list {
              shape {
              }
            }
          }
        }
      }
    }
    arg_attr {
      key: 124
      value {
        attr {
          key: "_output_shapes"
          value {
            list {
              shape {
              }
            }
          }
        }
      }
    }
    arg_attr {
      key: 125
      value {
        attr {
          key: "_output_shapes"
          value {
            list {
              shape {
              }
            }
          }
        }
      }
    }
    arg_attr {
      key: 126
      value {
        attr {
          key: "_output_shapes"
          value {
            list {
              shape {
              }
            }
          }
        }
      }
    }
    arg_attr {
      key: 127
      value {
        attr {
          key: "_output_shapes"
          value {
            list {
              shape {
              }
            }
          }
        }
      }
    }
    arg_attr {
      key: 128
      value {
        attr {
          key: "_output_shapes"
          value {
            list {
              shape {
              }
            }
          }
        }
      }
    }
    arg_attr {
      key: 129
      value {
        attr {
          key: "_output_shapes"
          value {
            list {
              shape {
              }
            }
          }
        }
      }
    }
    arg_attr {
      key: 130
      value {
        attr {
          key: "_output_shapes"
          value {
            list {
              shape {
              }
            }
          }
        }
      }
    }
    arg_attr {
      key: 131
      value {
        attr {
          key: "_output_shapes"
          value {
            list {
              shape {
              }
            }
          }
        }
      }
    }
    arg_attr {
      key: 132
      value {
        attr {
          key: "_output_shapes"
          value {
            list {
              shape {
              }
            }
          }
        }
      }
    }
    arg_attr {
      key: 133
      value {
        attr {
          key: "_output_shapes"
          value {
            list {
              shape {
              }
            }
          }
        }
      }
    }
    arg_attr {
      key: 134
      value {
        attr {
          key: "_output_shapes"
          value {
            list {
              shape {
              }
            }
          }
        }
      }
    }
    arg_attr {
      key: 135
      value {
        attr {
          key: "_output_shapes"
          value {
            list {
              shape {
              }
            }
          }
        }
      }
    }
    arg_attr {
      key: 136
      value {
        attr {
          key: "_output_shapes"
          value {
            list {
              shape {
              }
            }
          }
        }
      }
    }
    arg_attr {
      key: 137
      value {
        attr {
          key: "_output_shapes"
          value {
            list {
              shape {
              }
            }
          }
        }
      }
    }
    arg_attr {
      key: 138
      value {
        attr {
          key: "_output_shapes"
          value {
            list {
              shape {
              }
            }
          }
        }
      }
    }
    arg_attr {
      key: 139
      value {
        attr {
          key: "_output_shapes"
          value {
            list {
              shape {
              }
            }
          }
        }
      }
    }
    arg_attr {
      key: 140
      value {
        attr {
          key: "_output_shapes"
          value {
            list {
              shape {
              }
            }
          }
        }
      }
    }
    arg_attr {
      key: 141
      value {
        attr {
          key: "_output_shapes"
          value {
            list {
              shape {
              }
            }
          }
        }
      }
    }
    arg_attr {
      key: 142
      value {
        attr {
          key: "_output_shapes"
          value {
            list {
              shape {
              }
            }
          }
        }
      }
    }
    arg_attr {
      key: 143
      value {
        attr {
          key: "_output_shapes"
          value {
            list {
              shape {
              }
            }
          }
        }
      }
    }
    arg_attr {
      key: 144
      value {
        attr {
          key: "_output_shapes"
          value {
            list {
              shape {
              }
            }
          }
        }
      }
    }
    arg_attr {
      key: 145
      value {
        attr {
          key: "_output_shapes"
          value {
            list {
              shape {
              }
            }
          }
        }
      }
    }
    arg_attr {
      key: 146
      value {
        attr {
          key: "_output_shapes"
          value {
            list {
              shape {
              }
            }
          }
        }
      }
    }
    arg_attr {
      key: 147
      value {
        attr {
          key: "_output_shapes"
          value {
            list {
              shape {
              }
            }
          }
        }
      }
    }
    arg_attr {
      key: 148
      value {
        attr {
          key: "_output_shapes"
          value {
            list {
              shape {
              }
            }
          }
        }
      }
    }
    arg_attr {
      key: 149
      value {
        attr {
          key: "_output_shapes"
          value {
            list {
              shape {
              }
            }
          }
        }
      }
    }
    arg_attr {
      key: 150
      value {
        attr {
          key: "_output_shapes"
          value {
            list {
              shape {
              }
            }
          }
        }
      }
    }
    arg_attr {
      key: 151
      value {
        attr {
          key: "_output_shapes"
          value {
            list {
              shape {
              }
            }
          }
        }
      }
    }
    arg_attr {
      key: 152
      value {
        attr {
          key: "_output_shapes"
          value {
            list {
              shape {
              }
            }
          }
        }
      }
    }
    arg_attr {
      key: 153
      value {
        attr {
          key: "_output_shapes"
          value {
            list {
              shape {
              }
            }
          }
        }
      }
    }
    arg_attr {
      key: 154
      value {
        attr {
          key: "_output_shapes"
          value {
            list {
              shape {
              }
            }
          }
        }
      }
    }
    arg_attr {
      key: 155
      value {
        attr {
          key: "_output_shapes"
          value {
            list {
              shape {
              }
            }
          }
        }
      }
    }
    arg_attr {
      key: 156
      value {
        attr {
          key: "_output_shapes"
          value {
            list {
              shape {
              }
            }
          }
        }
      }
    }
    arg_attr {
      key: 157
      value {
        attr {
          key: "_output_shapes"
          value {
            list {
              shape {
              }
            }
          }
        }
      }
    }
    arg_attr {
      key: 158
      value {
        attr {
          key: "_output_shapes"
          value {
            list {
              shape {
              }
            }
          }
        }
      }
    }
    arg_attr {
      key: 159
      value {
        attr {
          key: "_output_shapes"
          value {
            list {
              shape {
              }
            }
          }
        }
      }
    }
    arg_attr {
      key: 160
      value {
        attr {
          key: "_output_shapes"
          value {
            list {
              shape {
              }
            }
          }
        }
      }
    }
    arg_attr {
      key: 161
      value {
        attr {
          key: "_output_shapes"
          value {
            list {
              shape {
              }
            }
          }
        }
      }
    }
    arg_attr {
      key: 162
      value {
        attr {
          key: "_output_shapes"
          value {
            list {
              shape {
              }
            }
          }
        }
      }
    }
    arg_attr {
      key: 163
      value {
        attr {
          key: "_output_shapes"
          value {
            list {
              shape {
              }
            }
          }
        }
      }
    }
    arg_attr {
      key: 164
      value {
        attr {
          key: "_output_shapes"
          value {
            list {
              shape {
              }
            }
          }
        }
      }
    }
    arg_attr {
      key: 165
      value {
        attr {
          key: "_output_shapes"
          value {
            list {
              shape {
              }
            }
          }
        }
      }
    }
    arg_attr {
      key: 166
      value {
        attr {
          key: "_output_shapes"
          value {
            list {
              shape {
              }
            }
          }
        }
      }
    }
    arg_attr {
      key: 167
      value {
        attr {
          key: "_output_shapes"
          value {
            list {
              shape {
              }
            }
          }
        }
      }
    }
    arg_attr {
      key: 168
      value {
        attr {
          key: "_output_shapes"
          value {
            list {
              shape {
              }
            }
          }
        }
      }
    }
    arg_attr {
      key: 169
      value {
        attr {
          key: "_output_shapes"
          value {
            list {
              shape {
              }
            }
          }
        }
      }
    }
    arg_attr {
      key: 170
      value {
        attr {
          key: "_output_shapes"
          value {
            list {
              shape {
              }
            }
          }
        }
      }
    }
    arg_attr {
      key: 171
      value {
        attr {
          key: "_output_shapes"
          value {
            list {
              shape {
              }
            }
          }
        }
      }
    }
    arg_attr {
      key: 172
      value {
        attr {
          key: "_output_shapes"
          value {
            list {
              shape {
              }
            }
          }
        }
      }
    }
    arg_attr {
      key: 173
      value {
        attr {
          key: "_output_shapes"
          value {
            list {
              shape {
              }
            }
          }
        }
      }
    }
    arg_attr {
      key: 174
      value {
        attr {
          key: "_output_shapes"
          value {
            list {
              shape {
              }
            }
          }
        }
      }
    }
    arg_attr {
      key: 175
      value {
        attr {
          key: "_output_shapes"
          value {
            list {
              shape {
              }
            }
          }
        }
      }
    }
    arg_attr {
      key: 176
      value {
        attr {
          key: "_output_shapes"
          value {
            list {
              shape {
              }
            }
          }
        }
      }
    }
    arg_attr {
      key: 177
      value {
        attr {
          key: "_output_shapes"
          value {
            list {
              shape {
              }
            }
          }
        }
      }
    }
    arg_attr {
      key: 178
      value {
        attr {
          key: "_output_shapes"
          value {
            list {
              shape {
              }
            }
          }
        }
      }
    }
    arg_attr {
      key: 179
      value {
        attr {
          key: "_output_shapes"
          value {
            list {
              shape {
              }
            }
          }
        }
      }
    }
    arg_attr {
      key: 180
      value {
        attr {
          key: "_output_shapes"
          value {
            list {
              shape {
              }
            }
          }
        }
      }
    }
    arg_attr {
      key: 181
      value {
        attr {
          key: "_output_shapes"
          value {
            list {
              shape {
              }
            }
          }
        }
      }
    }
    arg_attr {
      key: 182
      value {
        attr {
          key: "_output_shapes"
          value {
            list {
              shape {
              }
            }
          }
        }
      }
    }
    arg_attr {
      key: 183
      value {
        attr {
          key: "_output_shapes"
          value {
            list {
              shape {
              }
            }
          }
        }
      }
    }
    arg_attr {
      key: 184
      value {
        attr {
          key: "_output_shapes"
          value {
            list {
              shape {
              }
            }
          }
        }
      }
    }
    arg_attr {
      key: 185
      value {
        attr {
          key: "_output_shapes"
          value {
            list {
              shape {
              }
            }
          }
        }
      }
    }
    arg_attr {
      key: 186
      value {
        attr {
          key: "_output_shapes"
          value {
            list {
              shape {
              }
            }
          }
        }
      }
    }
  }
  function {
    signature {
      name: "map_while_body_4145"
      input_arg {
        name: "map_while_loop_counter_1"
        type: DT_INT32
      }
      input_arg {
        name: "map_while_maximum_iterations_0"
        type: DT_INT32
      }
      input_arg {
        name: "placeholder"
        type: DT_INT32
      }
      input_arg {
        name: "placeholder_1"
        type: DT_VARIANT
      }
      input_arg {
        name: "tensorarrayv2read_tensorlistgetitem_map_tensorarrayunstack_tensorlistfromtensor_0"
        type: DT_VARIANT
      }
      input_arg {
        name: "strided_slice_const_0"
        type: DT_FLOAT
      }
      output_arg {
        name: "add_2"
        type: DT_INT32
      }
      output_arg {
        name: "map_while_maximum_iterations"
        type: DT_INT32
      }
      output_arg {
        name: "add_1"
        type: DT_INT32
      }
      output_arg {
        name: "tensorarrayv2write_tensorlistsetitem"
        type: DT_VARIANT
      }
      output_arg {
        name: "tensorarrayv2read_tensorlistgetitem_map_tensorarrayunstack_tensorlistfromtensor"
        type: DT_VARIANT
      }
      output_arg {
        name: "strided_slice_const"
        type: DT_FLOAT
      }
    }
    node_def {
      name: "TensorArrayV2Read/Const"
      op: "Const"
      attr {
        key: "_output_shapes"
        value {
          list {
            shape {
              dim {
              }
            }
          }
        }
      }
      attr {
        key: "dtype"
        value {
          type: DT_INT32
        }
      }
      attr {
        key: "value"
        value {
          tensor {
            dtype: DT_INT32
            tensor_shape {
              dim {
              }
            }
          }
        }
      }
    }
    node_def {
      name: "TensorArrayV2Read/TensorListGetItem"
      op: "TensorListGetItem"
      input: "tensorarrayv2read_tensorlistgetitem_map_tensorarrayunstack_tensorlistfromtensor_0"
      input: "placeholder"
      input: "TensorArrayV2Read/Const:output:0"
      attr {
        key: "_output_shapes"
        value {
          list {
            shape {
            }
          }
        }
      }
      attr {
        key: "element_dtype"
        value {
          type: DT_INT32
        }
      }
    }
    node_def {
      name: "add/y"
      op: "Const"
      attr {
        key: "_output_shapes"
        value {
          list {
            shape {
            }
          }
        }
      }
      attr {
        key: "dtype"
        value {
          type: DT_INT32
        }
      }
      attr {
        key: "value"
        value {
          tensor {
            dtype: DT_INT32
            tensor_shape {
            }
            int_val: 1
          }
        }
      }
    }
    node_def {
      name: "add"
      op: "AddV2"
      input: "TensorArrayV2Read/TensorListGetItem:item:0"
      input: "add/y:output:0"
      attr {
        key: "T"
        value {
          type: DT_INT32
        }
      }
      attr {
        key: "_output_shapes"
        value {
          list {
            shape {
            }
          }
        }
      }
    }
    node_def {
      name: "strided_slice/stack"
      op: "Pack"
      input: "TensorArrayV2Read/TensorListGetItem:item:0"
      attr {
        key: "N"
        value {
          i: 1
        }
      }
      attr {
        key: "T"
        value {
          type: DT_INT32
        }
      }
      attr {
        key: "_output_shapes"
        value {
          list {
            shape {
              dim {
                size: 1
              }
            }
          }
        }
      }
      attr {
        key: "axis"
        value {
          i: 0
        }
      }
    }
    node_def {
      name: "strided_slice/stack_1"
      op: "Pack"
      input: "add:z:0"
      attr {
        key: "N"
        value {
          i: 1
        }
      }
      attr {
        key: "T"
        value {
          type: DT_INT32
        }
      }
      attr {
        key: "_output_shapes"
        value {
          list {
            shape {
              dim {
                size: 1
              }
            }
          }
        }
      }
      attr {
        key: "axis"
        value {
          i: 0
        }
      }
    }
    node_def {
      name: "strided_slice/stack_2"
      op: "Const"
      attr {
        key: "_output_shapes"
        value {
          list {
            shape {
              dim {
                size: 1
              }
            }
          }
        }
      }
      attr {
        key: "dtype"
        value {
          type: DT_INT32
        }
      }
      attr {
        key: "value"
        value {
          tensor {
            dtype: DT_INT32
            tensor_shape {
              dim {
                size: 1
              }
            }
            int_val: 1
          }
        }
      }
    }
    node_def {
      name: "strided_slice"
      op: "StridedSlice"
      input: "strided_slice_const_0"
      input: "strided_slice/stack:output:0"
      input: "strided_slice/stack_1:output:0"
      input: "strided_slice/stack_2:output:0"
      attr {
        key: "Index"
        value {
          type: DT_INT32
        }
      }
      attr {
        key: "T"
        value {
          type: DT_FLOAT
        }
      }
      attr {
        key: "_output_shapes"
        value {
          list {
            shape {
            }
          }
        }
      }
      attr {
        key: "begin_mask"
        value {
          i: 0
        }
      }
      attr {
        key: "ellipsis_mask"
        value {
          i: 0
        }
      }
      attr {
        key: "end_mask"
        value {
          i: 0
        }
      }
      attr {
        key: "new_axis_mask"
        value {
          i: 0
        }
      }
      attr {
        key: "shrink_axis_mask"
        value {
          i: 1
        }
      }
    }
    node_def {
      name: "TensorArrayV2Write/TensorListSetItem"
      op: "TensorListSetItem"
      input: "placeholder_1"
      input: "placeholder"
      input: "strided_slice:output:0"
      attr {
        key: "_output_shapes"
        value {
          list {
            shape {
            }
          }
        }
      }
      attr {
        key: "element_dtype"
        value {
          type: DT_FLOAT
        }
      }
      experimental_type {
        type_id: TFT_PRODUCT
        args {
          type_id: TFT_ARRAY
          args {
            type_id: TFT_TENSOR
            args {
              type_id: TFT_FLOAT
            }
          }
        }
      }
    }
    node_def {
      name: "add_1/y"
      op: "Const"
      attr {
        key: "_output_shapes"
        value {
          list {
            shape {
            }
          }
        }
      }
      attr {
        key: "dtype"
        value {
          type: DT_INT32
        }
      }
      attr {
        key: "value"
        value {
          tensor {
            dtype: DT_INT32
            tensor_shape {
            }
            int_val: 1
          }
        }
      }
    }
    node_def {
      name: "add_1_0"
      op: "AddV2"
      input: "placeholder"
      input: "add_1/y:output:0"
      attr {
        key: "T"
        value {
          type: DT_INT32
        }
      }
    }
    node_def {
      name: "add_2/y"
      op: "Const"
      attr {
        key: "_output_shapes"
        value {
          list {
            shape {
            }
          }
        }
      }
      attr {
        key: "dtype"
        value {
          type: DT_INT32
        }
      }
      attr {
        key: "value"
        value {
          tensor {
            dtype: DT_INT32
            tensor_shape {
            }
            int_val: 1
          }
        }
      }
    }
    node_def {
      name: "add_2_0"
      op: "AddV2"
      input: "map_while_loop_counter_1"
      input: "add_2/y:output:0"
      attr {
        key: "T"
        value {
          type: DT_INT32
        }
      }
    }
    ret {
      key: "add_1"
      value: "add_1_0:z:0"
    }
    ret {
      key: "add_2"
      value: "add_2_0:z:0"
    }
    ret {
      key: "map_while_maximum_iterations"
      value: "map_while_maximum_iterations_0"
    }
    ret {
      key: "strided_slice_const"
      value: "strided_slice_const_0"
    }
    ret {
      key: "tensorarrayv2read_tensorlistgetitem_map_tensorarrayunstack_tensorlistfromtensor"
      value: "tensorarrayv2read_tensorlistgetitem_map_tensorarrayunstack_tensorlistfromtensor_0"
    }
    ret {
      key: "tensorarrayv2write_tensorlistsetitem"
      value: "TensorArrayV2Write/TensorListSetItem:output_handle:0"
    }
    attr {
      key: "_input_shapes"
      value {
        list {
          shape {
          }
          shape {
          }
          shape {
          }
          shape {
          }
          shape {
          }
          shape {
            dim {
              size: 5
            }
          }
        }
      }
    }
    arg_attr {
      value {
        attr {
          key: "_output_shapes"
          value {
            list {
              shape {
              }
            }
          }
        }
      }
    }
    arg_attr {
      key: 1
      value {
        attr {
          key: "_output_shapes"
          value {
            list {
              shape {
              }
            }
          }
        }
      }
    }
    arg_attr {
      key: 2
      value {
        attr {
          key: "_output_shapes"
          value {
            list {
              shape {
              }
            }
          }
        }
      }
    }
    arg_attr {
      key: 3
      value {
        attr {
          key: "_output_shapes"
          value {
            list {
              shape {
              }
            }
          }
        }
      }
    }
    arg_attr {
      key: 4
      value {
        attr {
          key: "_output_shapes"
          value {
            list {
              shape {
              }
            }
          }
        }
      }
    }
    arg_attr {
      key: 5
      value {
        attr {
          key: "_output_shapes"
          value {
            list {
              shape {
                dim {
                  size: 5
                }
              }
            }
          }
        }
      }
    }
  }
  function {
    signature {
      name: "map_1_while_body_4248"
      input_arg {
        name: "map_1_while_loop_counter"
        type: DT_INT32
      }
      input_arg {
        name: "map_1_strided_slice_0"
        type: DT_INT32
      }
      input_arg {
        name: "placeholder"
        type: DT_INT32
      }
      input_arg {
        name: "placeholder_1"
        type: DT_VARIANT
      }
      input_arg {
        name: "map_1_strided_slice_1_0"
        type: DT_INT32
      }
      input_arg {
        name: "tensorarrayv2read_tensorlistgetitem_map_1_tensorarrayunstack_tensorlistfromtensor_0"
        type: DT_VARIANT
      }
      input_arg {
        name: "map_while_const_1_0"
        type: DT_FLOAT
      }
      output_arg {
        name: "add_1"
        type: DT_INT32
      }
      output_arg {
        name: "map_1_strided_slice"
        type: DT_INT32
      }
      output_arg {
        name: "add"
        type: DT_INT32
      }
      output_arg {
        name: "tensorarrayv2write_tensorlistsetitem"
        type: DT_VARIANT
      }
      output_arg {
        name: "map_1_strided_slice_1"
        type: DT_INT32
      }
      output_arg {
        name: "tensorarrayv2read_tensorlistgetitem_map_1_tensorarrayunstack_tensorlistfromtensor"
        type: DT_VARIANT
      }
      output_arg {
        name: "map_while_const_1"
        type: DT_FLOAT
      }
    }
    node_def {
      name: "TensorArrayV2Read/TensorListGetItem/element_shape"
      op: "Const"
      attr {
        key: "_output_shapes"
        value {
          list {
            shape {
              dim {
                size: 1
              }
            }
          }
        }
      }
      attr {
        key: "dtype"
        value {
          type: DT_INT32
        }
      }
      attr {
        key: "value"
        value {
          tensor {
            dtype: DT_INT32
            tensor_shape {
              dim {
                size: 1
              }
            }
            int_val: 4
          }
        }
      }
    }
    node_def {
      name: "TensorArrayV2Read/TensorListGetItem"
      op: "TensorListGetItem"
      input: "tensorarrayv2read_tensorlistgetitem_map_1_tensorarrayunstack_tensorlistfromtensor_0"
      input: "placeholder"
      input: "TensorArrayV2Read/TensorListGetItem/element_shape:output:0"
      attr {
        key: "_output_shapes"
        value {
          list {
            shape {
              dim {
                size: 4
              }
            }
          }
        }
      }
      attr {
        key: "element_dtype"
        value {
          type: DT_INT32
        }
      }
    }
    node_def {
      name: "map/TensorArrayV2/element_shape"
      op: "Const"
      attr {
        key: "_output_shapes"
        value {
          list {
            shape {
            }
          }
        }
      }
      attr {
        key: "dtype"
        value {
          type: DT_INT32
        }
      }
      attr {
        key: "value"
        value {
          tensor {
            dtype: DT_INT32
            tensor_shape {
            }
            int_val: -1
          }
        }
      }
    }
    node_def {
      name: "map/TensorArrayV2/num_elements"
      op: "Const"
      attr {
        key: "_output_shapes"
        value {
          list {
            shape {
            }
          }
        }
      }
      attr {
        key: "dtype"
        value {
          type: DT_INT32
        }
      }
      attr {
        key: "value"
        value {
          tensor {
            dtype: DT_INT32
            tensor_shape {
            }
            int_val: 4
          }
        }
      }
    }
    node_def {
      name: "map/TensorArrayV2"
      op: "TensorListReserve"
      input: "map/TensorArrayV2/element_shape:output:0"
      input: "map/TensorArrayV2/num_elements:output:0"
      attr {
        key: "_output_shapes"
        value {
          list {
            shape {
            }
          }
        }
      }
      attr {
        key: "element_dtype"
        value {
          type: DT_INT32
        }
      }
      attr {
        key: "shape_type"
        value {
          type: DT_INT32
        }
      }
      experimental_type {
        type_id: TFT_PRODUCT
        args {
          type_id: TFT_ARRAY
          args {
            type_id: TFT_TENSOR
            args {
              type_id: TFT_INT32
            }
          }
        }
      }
    }
    node_def {
      name: "map/TensorArrayUnstack/Const"
      op: "Const"
      attr {
        key: "_output_shapes"
        value {
          list {
            shape {
              dim {
              }
            }
          }
        }
      }
      attr {
        key: "dtype"
        value {
          type: DT_INT32
        }
      }
      attr {
        key: "value"
        value {
          tensor {
            dtype: DT_INT32
            tensor_shape {
              dim {
              }
            }
          }
        }
      }
    }
    node_def {
      name: "map/TensorArrayUnstack/TensorListFromTensor"
      op: "TensorListFromTensor"
      input: "TensorArrayV2Read/TensorListGetItem:item:0"
      input: "map/TensorArrayUnstack/Const:output:0"
      attr {
        key: "_output_shapes"
        value {
          list {
            shape {
            }
          }
        }
      }
      attr {
        key: "element_dtype"
        value {
          type: DT_INT32
        }
      }
      attr {
        key: "shape_type"
        value {
          type: DT_INT32
        }
      }
      experimental_type {
        type_id: TFT_PRODUCT
        args {
          type_id: TFT_ARRAY
          args {
            type_id: TFT_TENSOR
            args {
              type_id: TFT_INT32
            }
          }
        }
      }
    }
    node_def {
      name: "map/Const"
      op: "Const"
      attr {
        key: "_output_shapes"
        value {
          list {
            shape {
            }
          }
        }
      }
      attr {
        key: "dtype"
        value {
          type: DT_INT32
        }
      }
      attr {
        key: "value"
        value {
          tensor {
            dtype: DT_INT32
            tensor_shape {
            }
            int_val: 0
          }
        }
      }
    }
    node_def {
      name: "map/TensorArrayV2_1/element_shape"
      op: "Const"
      attr {
        key: "_output_shapes"
        value {
          list {
            shape {
            }
          }
        }
      }
      attr {
        key: "dtype"
        value {
          type: DT_INT32
        }
      }
      attr {
        key: "value"
        value {
          tensor {
            dtype: DT_INT32
            tensor_shape {
            }
            int_val: -1
          }
        }
      }
    }
    node_def {
      name: "map/TensorArrayV2_1/num_elements"
      op: "Const"
      attr {
        key: "_output_shapes"
        value {
          list {
            shape {
            }
          }
        }
      }
      attr {
        key: "dtype"
        value {
          type: DT_INT32
        }
      }
      attr {
        key: "value"
        value {
          tensor {
            dtype: DT_INT32
            tensor_shape {
            }
            int_val: 4
          }
        }
      }
    }
    node_def {
      name: "map/TensorArrayV2_1"
      op: "TensorListReserve"
      input: "map/TensorArrayV2_1/element_shape:output:0"
      input: "map/TensorArrayV2_1/num_elements:output:0"
      attr {
        key: "_output_shapes"
        value {
          list {
            shape {
            }
          }
        }
      }
      attr {
        key: "element_dtype"
        value {
          type: DT_FLOAT
        }
      }
      attr {
        key: "shape_type"
        value {
          type: DT_INT32
        }
      }
      experimental_type {
        type_id: TFT_PRODUCT
        args {
          type_id: TFT_ARRAY
          args {
            type_id: TFT_TENSOR
            args {
              type_id: TFT_FLOAT
            }
          }
        }
      }
    }
    node_def {
      name: "map/while/maximum_iterations"
      op: "Const"
      attr {
        key: "_output_shapes"
        value {
          list {
            shape {
            }
          }
        }
      }
      attr {
        key: "dtype"
        value {
          type: DT_INT32
        }
      }
      attr {
        key: "value"
        value {
          tensor {
            dtype: DT_INT32
            tensor_shape {
            }
            int_val: 4
          }
        }
      }
    }
    node_def {
      name: "map/while/loop_counter"
      op: "Const"
      attr {
        key: "_output_shapes"
        value {
          list {
            shape {
            }
          }
        }
      }
      attr {
        key: "dtype"
        value {
          type: DT_INT32
        }
      }
      attr {
        key: "value"
        value {
          tensor {
            dtype: DT_INT32
            tensor_shape {
            }
            int_val: 0
          }
        }
      }
    }
    node_def {
      name: "map/while"
      op: "StatelessWhile"
      input: "map/while/loop_counter:output:0"
      input: "map/while/maximum_iterations:output:0"
      input: "map/Const:output:0"
      input: "map/TensorArrayV2_1:handle:0"
      input: "map/TensorArrayUnstack/TensorListFromTensor:output_handle:0"
      input: "map_while_const_1_0"
      attr {
        key: "T"
        value {
          list {
            type: DT_INT32
            type: DT_INT32
            type: DT_INT32
            type: DT_VARIANT
            type: DT_VARIANT
            type: DT_FLOAT
          }
        }
      }
      attr {
        key: "_lower_using_switch_merge"
        value {
          b: true
        }
      }
      attr {
        key: "_num_original_outputs"
        value {
          i: 6
        }
      }
      attr {
        key: "_output_shapes"
        value {
          list {
            shape {
            }
            shape {
            }
            shape {
            }
            shape {
            }
            shape {
            }
            shape {
              dim {
                size: 5
              }
            }
          }
        }
      }
      attr {
        key: "_read_only_resource_inputs"
        value {
          list {
          }
        }
      }
      attr {
        key: "_stateful_parallelism"
        value {
          b: false
        }
      }
      attr {
        key: "body"
        value {
          func {
            name: "map_while_body_4278"
          }
        }
      }
      attr {
        key: "cond"
        value {
          func {
            name: "map_while_cond_4277"
          }
        }
      }
      attr {
        key: "output_shapes"
        value {
          list {
            shape {
            }
            shape {
            }
            shape {
            }
            shape {
            }
            shape {
            }
            shape {
              dim {
                size: 5
              }
            }
          }
        }
      }
      attr {
        key: "parallel_iterations"
        value {
          i: 10
        }
      }
    }
    node_def {
      name: "map/TensorArrayV2Stack/Const"
      op: "Const"
      attr {
        key: "_output_shapes"
        value {
          list {
            shape {
              dim {
              }
            }
          }
        }
      }
      attr {
        key: "dtype"
        value {
          type: DT_INT32
        }
      }
      attr {
        key: "value"
        value {
          tensor {
            dtype: DT_INT32
            tensor_shape {
              dim {
              }
            }
          }
        }
      }
    }
    node_def {
      name: "map/TensorArrayV2Stack/TensorListStack"
      op: "TensorListStack"
      input: "map/while:output:3"
      input: "map/TensorArrayV2Stack/Const:output:0"
      attr {
        key: "_output_shapes"
        value {
          list {
            shape {
              dim {
                size: 4
              }
            }
          }
        }
      }
      attr {
        key: "element_dtype"
        value {
          type: DT_FLOAT
        }
      }
      attr {
        key: "num_elements"
        value {
          i: 4
        }
      }
    }
    node_def {
      name: "TensorArrayV2Write/TensorListSetItem"
      op: "TensorListSetItem"
      input: "placeholder_1"
      input: "placeholder"
      input: "map/TensorArrayV2Stack/TensorListStack:tensor:0"
      attr {
        key: "_output_shapes"
        value {
          list {
            shape {
            }
          }
        }
      }
      attr {
        key: "element_dtype"
        value {
          type: DT_FLOAT
        }
      }
      experimental_type {
        type_id: TFT_PRODUCT
        args {
          type_id: TFT_ARRAY
          args {
            type_id: TFT_TENSOR
            args {
              type_id: TFT_FLOAT
            }
          }
        }
      }
    }
    node_def {
      name: "add/y"
      op: "Const"
      attr {
        key: "_output_shapes"
        value {
          list {
            shape {
            }
          }
        }
      }
      attr {
        key: "dtype"
        value {
          type: DT_INT32
        }
      }
      attr {
        key: "value"
        value {
          tensor {
            dtype: DT_INT32
            tensor_shape {
            }
            int_val: 1
          }
        }
      }
    }
    node_def {
      name: "add_0"
      op: "AddV2"
      input: "placeholder"
      input: "add/y:output:0"
      attr {
        key: "T"
        value {
          type: DT_INT32
        }
      }
    }
    node_def {
      name: "add_1/y"
      op: "Const"
      attr {
        key: "_output_shapes"
        value {
          list {
            shape {
            }
          }
        }
      }
      attr {
        key: "dtype"
        value {
          type: DT_INT32
        }
      }
      attr {
        key: "value"
        value {
          tensor {
            dtype: DT_INT32
            tensor_shape {
            }
            int_val: 1
          }
        }
      }
    }
    node_def {
      name: "add_1_0"
      op: "AddV2"
      input: "map_1_while_loop_counter"
      input: "add_1/y:output:0"
      attr {
        key: "T"
        value {
          type: DT_INT32
        }
      }
    }
    ret {
      key: "add"
      value: "add_0:z:0"
    }
    ret {
      key: "add_1"
      value: "add_1_0:z:0"
    }
    ret {
      key: "map_1_strided_slice"
      value: "map_1_strided_slice_0"
    }
    ret {
      key: "map_1_strided_slice_1"
      value: "map_1_strided_slice_1_0"
    }
    ret {
      key: "map_while_const_1"
      value: "map_while_const_1_0"
    }
    ret {
      key: "tensorarrayv2read_tensorlistgetitem_map_1_tensorarrayunstack_tensorlistfromtensor"
      value: "tensorarrayv2read_tensorlistgetitem_map_1_tensorarrayunstack_tensorlistfromtensor_0"
    }
    ret {
      key: "tensorarrayv2write_tensorlistsetitem"
      value: "TensorArrayV2Write/TensorListSetItem:output_handle:0"
    }
    attr {
      key: "_input_shapes"
      value {
        list {
          shape {
          }
          shape {
          }
          shape {
          }
          shape {
          }
          shape {
          }
          shape {
          }
          shape {
            dim {
              size: 5
            }
          }
        }
      }
    }
    arg_attr {
      value {
        attr {
          key: "_output_shapes"
          value {
            list {
              shape {
              }
            }
          }
        }
      }
    }
    arg_attr {
      key: 1
      value {
        attr {
          key: "_output_shapes"
          value {
            list {
              shape {
              }
            }
          }
        }
      }
    }
    arg_attr {
      key: 2
      value {
        attr {
          key: "_output_shapes"
          value {
            list {
              shape {
              }
            }
          }
        }
      }
    }
    arg_attr {
      key: 3
      value {
        attr {
          key: "_output_shapes"
          value {
            list {
              shape {
              }
            }
          }
        }
      }
    }
    arg_attr {
      key: 4
      value {
        attr {
          key: "_output_shapes"
          value {
            list {
              shape {
              }
            }
          }
        }
      }
    }
    arg_attr {
      key: 5
      value {
        attr {
          key: "_output_shapes"
          value {
            list {
              shape {
              }
            }
          }
        }
      }
    }
    arg_attr {
      key: 6
      value {
        attr {
          key: "_output_shapes"
          value {
            list {
              shape {
                dim {
                  size: 5
                }
              }
            }
          }
        }
      }
    }
  }
}
versions {
  producer: 1087
  min_consumer: 12
}
